models/best_model.pt (torch, 239010 bytes, 46 tensors)

vitals_proj.0.weight f4 [64, 6]
000000 10 05 3a 3e 2a 2a 28 3d bf 1a 8a be c7 d7 44 bd
       0.18165994 0.041055836 -0.2697353 -0.048057344
000010 a7 64 2f be 01 fa c7 3c 23 4b c5 3e 6d 70 b1 3e
       -0.1712824 0.024411203 0.38533887 0.34656087
000020 c3 44 65 3d 22 53 b5 be 3b 34 30 3e 79 1f 4e 3e
       0.05597378 -0.35414988 0.17207424 0.20129193
000030 48 f3 66 be e7 12 1f be 61 d0 3d bb 8f 47 79 be
       -0.22553742 -0.15534554 -0.0028963315 -0.24343704
000040 6a 60 99 3e d7 3e 42 3e 3e b0 4f be d7 ed 3b be
       0.2995637 0.18969284 -0.20282075 -0.18352447
000050 36 13 6d 3d c6 f1 b6 3e 18 a0 a2 3d f5 0b c9 bd
       0.05787965 0.35731333 0.07940692 -0.09816734
000060 22 5a 49 be b3 cb 33 be 4f 5f 8a 3e 54 6a ab 3e
       -0.19663289 -0.17558174 0.2702584 0.3347956
000070 3d 7f 23 be 41 65 bf be 86 0f 04 be de 79 bd 3d
       -0.15966506 -0.37381938 -0.12896547 0.0925176
000080 e6 1d 84 be 60 59 b4 3d 97 d6 73 3e 95 a2 64 be
       -0.2580406 0.088061094 0.23812328 -0.22327645
000090 ac eb 28 3e 73 02 57 3e d4 f4 0c be 50 83 89 3e
       0.16496152 0.20997028 -0.1376527 0.26857996
0000a0 63 da 83 be 6d b4 41 3e db 79 c8 be 57 71 c7 3e
       -0.25752553 0.18916483 -0.39155468 0.3895366
0000b0 22 df 78 3e 75 4c b3 3e 29 34 0c bd 00 49 36 3d
       0.24303868 0.3501927 -0.03422943 0.044503212
0000c0 74 5d 5d bd a2 2d bc 3d 05 98 13 be 01 78 48 be
       -0.054044202 0.09188391 -0.1441346 -0.19577028
0000d0 66 f1 c7 be 16 d7 c6 3e bf 3e ac 3e c6 68 9b bd
       -0.3905136 0.38835973 0.3364162 -0.07588343
0000e0 0d 37 13 be b2 5d 8f 3e b6 5c 4c 3c dd 59 97 3c
       -0.14376469 0.2800117 0.012473276 0.018475467
0000f0 51 80 40 3e 24 c2 45 3d a3 bc 79 be 03 20 8e 3e
       0.18798949 0.04828085 -0.24388365 0.27758798
000100 46 cf 06 3e 7e a9 16 be 70 66 42 3c d9 15 b3 bd
       0.13165006 -0.14713094 0.011865243 -0.087444015
000110 7d e2 83 bd 76 64 19 be a0 97 f6 3d 65 27 c3 3d
       -0.064396836 -0.14979729 0.12040639 0.09528998
000120 6f 46 63 3e 9f ee 8b be 6a 16 16 bc 42 24 8e 3e
       0.22194837 -0.2733049 -0.009160617 0.27762038
000130 55 16 c3 3e f6 2c 0d 3e c5 e1 7f 3e 35 9b bc 3e
       0.38102975 0.13786682 0.24988468 0.36837164
000140 29 9c 6c be c0 1a b1 3e 06 b5 80 3e f3 13 86 3e
       -0.23106445 0.3459072 0.2513811 0.26187095
000150 f3 77 cd 3e 70 e6 9b be 8f f1 78 3e 06 8b 95 bd
       0.40130576 -0.30449247 0.24310897 -0.07301907
000160 55 fc b8 be f4 f6 b0 3e a2 68 56 3b ea 1c 2d 3e
       -0.36130014 0.3456341 0.0032716175 0.16905561
000170 69 6f c0 3d 5a f1 b8 be dd 77 b1 be 0d fa 63 be
       0.0939625 -0.36121637 -0.3466176 -0.22263356
000180 bd 21 af be 63 62 71 be e9 8b 9d 3e d5 9a 15 be
       -0.34205428 -0.23572688 0.30770805 -0.14609845
000190 52 ce 89 3b 6a 57 d6 bd fc 2e c2 3d 69 f2 a8 be
       0.0042055035 -0.10465892 0.09481618 -0.32997444
0001a0 6f ad 02 bd ea a9 31 be da 41 b4 be 7b bf a1 be
       -0.03190368 -0.17349973 -0.3520649 -0.315914
0001b0 c1 c8 a6 be 22 d3 d0 bd f1 a6 cf 3c fb 26 f8 bd
       -0.32575038 -0.101965204 0.025348159 -0.1211681
0001c0 3f 21 72 3d a7 dd 4c be d5 e0 0c be 2e c4 9d 3e
       0.059113737 -0.20006429 -0.13757642 0.30813736
0001d0 0e cd ed 3c 1f 05 ec 3b 22 c5 af be e9 c1 2c be
       0.029028442 0.007202759 -0.34330088 -0.16870846
0001e0 89 56 f7 3d f4 07 9d be 79 82 00 be 5a 24 ba 3e
       0.12077052 -0.3067013 -0.12549771 0.3635586
0001f0 10 ce a1 3e ca 63 9d 3e 4b 43 fe 3d a1 0e f7 3d
       0.31602526 0.30740196 0.12415179 0.12063337
000200 10 98 4c 3e 7e bc 91 be 95 d1 9d 3e 28 53 1b be
       0.19979882 -0.2846412 0.3082396 -0.1516844
000210 35 e1 81 3e 08 08 c9 be 6a 23 55 3e 76 1e 21 3e
       0.25367132 -0.3926394 0.2081429 0.15734276
000220 30 7e 77 be f6 73 5c be a5 57 bc be da fd 23 be
       -0.2416923 -0.2152861 -0.36785617 -0.16014805
000230 a0 68 5a bd 12 e4 85 be 96 f2 cc 3d a6 20 37 be
       -0.053322434 -0.26150566 0.10007207 -0.17883548
000240 5f bc 2c be ad a9 d8 bd a6 19 90 bd f6 d8 52 be
       -0.16868733 -0.10579238 -0.07036142 -0.20590577
000250 d6 c4 28 be 9b 9b 0d be 1b bc 50 3e 47 d0 05 3e
       -0.16481337 -0.1382889 0.20384257 0.13067733
000260 21 a7 8f be 7f 0c ff bd a3 d2 52 3e 6b a6 64 be
       -0.28057197 -0.12453555 0.20588164 -0.22329108
000270 03 0d 61 be 0c c3 b7 be 26 8a da bd 62 29 b8 be
       -0.2197762 -0.35890996 -0.10670881 -0.35969073
000280 4d 26 a2 3c 3f 44 94 be 77 13 88 be 5d 21 41 3e
       0.019793654 -0.28958318 -0.2657735 0.18860383
000290 96 c8 b8 be e6 b1 8e be b1 6d 38 be ed 37 83 be
       -0.36090535 -0.278701 -0.18010594 -0.25628605
0002a0 7f c1 cb be 62 f6 55 3d be 31 ff bc 5b 42 48 be
       -0.39796063 0.052236922 -0.031151649 -0.19556563
0002b0 9a ef 8a be 4a ba ae 3e a6 57 c5 be 8c cd 16 3e
       -0.27135926 0.34126502 -0.38543433 0.14726847
0002c0 9f 78 31 3d b9 47 4b 3d c5 37 af 3e d9 a5 43 3d
       0.043327924 0.049628947 0.34222236 0.047765587
0002d0 65 ed 86 bb c0 2b 96 3d d1 a2 ed 3d a2 17 c7 bc
       -0.004117655 0.073325634 0.116033204 -0.024303261
0002e0 c8 e4 7e bb 6d 9f 23 3e a3 ce be be 33 8f 8a 3e
       -0.0038893688 0.15978785 -0.37267026 0.27062377
0002f0 98 2b 60 bb 13 da f4 bc 6e bd 8b 3e a3 a6 12 3d
       -0.0034205671 -0.029889142 0.2729296 0.03580345
000300 18 c5 48 be 3b 9a d0 3d 1e 36 99 3d 77 87 03 3e
       -0.19606435 0.10185667 0.07481025 0.12844644
000310 e6 a9 55 be f8 1f b0 bd 05 5f 51 bd 72 73 31 be
       -0.20865592 -0.085998476 -0.05111601 -0.17329195
000320 82 2d c7 3d b9 53 87 3e d1 ba 59 3e 1b 3d c1 be
       0.09725477 0.26431063 0.21262671 -0.37741932
000330 30 5a 58 bd 55 57 23 3e 9a 08 82 3e d0 60 4a 3d
       -0.052820385 0.15951283 0.25397187 0.049408734
000340 5c ed 5f 3e e2 00 9f bd e9 20 13 be 20 4d 40 be
       0.21867889 -0.0776384 -0.14368023 -0.18779421
000350 03 a0 78 3e 0f 52 3b be cb 5b c6 be e2 54 7d 3e
       0.2427979 -0.18293022 -0.38741907 0.24739411
000360 10 d1 39 be 1b e5 ac 3e 9f f8 e9 bd e2 d0 fa 3d
       -0.18146157 0.33768544 -0.11424374 0.122468725
000370 af 53 f6 3d e4 d0 8f 3e 10 fd 2f 3e f0 3f 27 3d
       0.1202768 0.28089058 0.1718638 0.04083246
000380 73 3b 9d bd e5 87 b7 3e f7 6e 59 be 1b e3 ea 3d
       -0.07677355 0.35845867 -0.21233736 0.11469098
000390 c7 70 00 3d 1d 47 c3 3e 1c 23 80 be 27 ae ad bd
       0.031357553 0.38140193 -0.25026786 -0.084804825
0003a0 6c 42 95 3b 44 02 bd be 23 2b 82 3e d0 a9 04 be
       0.0045550372 -0.3691579 0.25423536 -0.12955403
0003b0 31 de 86 be aa ba cb bd fa 5e 4c 3d 7a 56 64 be
       -0.26341394 -0.09947713 0.049895264 -0.22298613
0003c0 c9 77 89 be 42 27 e8 bd 7c 49 92 be 73 a3 34 3e
       -0.268492 -0.11335613 -0.2857169 0.17640476
0003d0 82 e5 0b 3e 54 43 11 be a1 85 3d 3e e9 65 d2 3d
       0.13661769 -0.1418584 0.18508007 0.10273344
0003e0 b8 d1 7c 3e 6a b3 c4 3c dd 42 03 3e 4b 91 b5 3d
       0.24689376 0.024011333 0.12818475 0.08865603
0003f0 79 a5 90 bd 26 49 33 be c4 f0 9b 3e 76 9b 1b be
       -0.070628114 -0.17508373 0.30457127 -0.15196022

vitals_proj.0.bias f4 [64]
000000 aa 26 30 3e 62 bb 85 bd 4b 23 99 be c8 38 96 be
       0.17202249 -0.06529881 -0.2990974 -0.29340196
000010 82 8d 7c be ac ce 9e be 8c f6 aa be 67 9b 1d 3e
       -0.24663356 -0.31017053 -0.33391225 0.15391313
000020 bd b9 a4 be 72 62 80 3a 40 90 8a be 51 10 ec 3b
       -0.32172957 0.0009794964 -0.2706318 0.0072040935
000030 f2 9b 99 be 66 37 49 bd 6a a3 3e be cc 6c 36 3e
       -0.3000179 -0.049125098 -0.18617025 0.1781494
000040 39 85 02 3e ba 28 56 bd d4 af 2d 3e d6 b8 b2 bd
       0.12746133 -0.052284934 0.16961604 -0.08726661
000050 98 98 37 3e f9 be e0 bd 47 4e 55 be d9 8d 70 3e
       0.17929304 -0.10973925 -0.20830642 0.2349161
000060 38 a7 f0 3d 23 d6 ac ba 2b 6c e0 bc a9 0f 32 3e
       0.117506444 -0.0013186376 -0.027395329 0.17388786
000070 81 82 d8 3d 32 82 26 be 88 f0 90 3e 1b 71 ad 3d
       0.10571767 -0.16260603 0.2830851 0.08468839
000080 05 35 d7 3c 84 3d 83 3e a2 0d 50 3e 2a 66 7d bd
       0.026270399 0.2563287 0.203177 -0.06186501
000090 8c d0 79 3d c2 c8 49 3e 75 e5 9e be 77 f1 83 3c
       0.0609899 0.1970549 -0.31034437 0.01610635
0000a0 21 0e a9 be fe 8c ac be 15 46 ae 3c 62 e6 de bd
       -0.33018592 -0.33701319 0.021273652 -0.10883786
0000b0 29 61 90 3e db a4 4f bd 15 04 77 3e ec bd d7 bc
       0.28199127 -0.050694328 0.24122651 -0.026335679
0000c0 47 8b 56 3e cf f3 1a be f4 e7 67 3e b4 31 6f bc
       0.20951568 -0.15132068 0.22647077 -0.0145992525
0000d0 fd 76 6a 3d 34 ed 65 be e3 2d 3b 3d 39 54 4a bd
       0.057242382 -0.22453767 0.045698058 -0.049396727
0000e0 8f 7e fc 3d 17 be ae 3b 68 38 06 be fb 0a 60 bc
       0.12328827 0.005332719 -0.13107455 -0.013674493
0000f0 0b e4 71 3e 1e ea fb 3d ae 50 8c be 3c d6 59 3e
       0.23622148 0.12300514 -0.27405304 0.2127313

vitals_proj.1.weight f4 [64]
000000 cd 59 7e 3f 29 3a 78 3f 71 36 77 3f 92 6b 75 3f
       0.99355775 0.96963745 0.96567446 0.95867264
000010 f6 8e 74 3f fe 69 70 3f 7b 62 76 3f 45 46 76 3f
       0.9553064 0.9391173 0.9624402 0.9620097
000020 46 9a 79 3f 23 31 7c 3f 82 dd 70 3f 9c c6 70 3f
       0.9750103 0.98512477 0.94087994 0.94053054
000030 34 38 78 3f 2b b4 79 3f 77 c2 7c 3f 47 2b 72 3f
       0.9696076 0.9754054 0.9873423 0.94597286
000040 d8 32 74 3f 83 02 74 3f 69 c6 75 3f 08 90 72 3f
       0.9539008 0.9531633 0.96005875 0.94751024
000050 c8 cc 79 3f 4f 09 74 3f c8 2f 77 3f 3a d5 73 3f
       0.97578096 0.95326704 0.96557283 0.9524723
000060 56 ef 73 3f 8f 8f 77 3f c1 d7 72 3f 9c b2 78 3f
       0.9528707 0.9670343 0.94860464 0.97147536
000070 0b 63 78 3f 63 28 75 3f 3a 14 7a 3f e6 b8 76 3f
       0.9702613 0.9576475 0.97687113 0.9637588
000080 7a 34 77 3f 7b de 78 3f 5e 3b 74 3f 35 ac 76 3f
       0.9656445 0.9721448 0.9540309 0.9635652
000090 af 1d 74 3f d6 f5 75 3f 84 fc 78 3f 61 6e 78 3f
       0.95357794 0.9607824 0.9726031 0.97043425
0000a0 9f 2a 73 3f bd 71 7c 3f 76 43 73 3f 6d a3 73 3f
       0.9498691 0.9861105 0.9502481 0.9517124
0000b0 ec 51 7a 3f eb ff 75 3f f0 7a 73 3f db 82 76 3f
       0.9778125 0.96093625 0.9510946 0.9629342
0000c0 47 06 77 3f 71 8f 75 3f 23 5d 78 3f ab 0b 72 3f
       0.96493953 0.95922 0.97017115 0.94549054
0000d0 84 3e 74 3f b7 9e 71 3f cd 88 74 3f c2 d3 71 3f
       0.9540789 0.94382805 0.9552124 0.9446374
0000e0 60 06 72 3f 76 d3 72 3f a4 59 77 3f 85 65 7c 3f
       0.9454098 0.94853914 0.96621156 0.98592407
0000f0 72 04 75 3f cc e9 75 3f 82 7d 7e 3f 0e a2 76 3f
       0.9570991 0.9605987 0.9941026 0.96341026

vitals_proj.1.bias f4 [64]
000000 0c 54 90 3c 6c a2 39 bc 92 bf ea 3b 2a 4d 6a bb
       0.017618202 -0.011330228 0.0071639502 -0.003575156
000010 3d 4c 83 3c 55 0c 88 bb 6a e1 22 bc 81 21 d8 3b
       0.016027564 -0.0041518607 -0.009941438 0.006595791
000020 e8 9f d3 bb 8d da f8 bb 34 b5 08 bc e6 35 fb 3b
       -0.0064582713 -0.0075944127 -0.008343983 0.0076663373
000030 92 16 4c bb dd 97 44 bc eb 78 ae 3c 15 31 03 bb
       -0.0031141383 -0.011999098 0.021297893 -0.002001827
000040 0b 4d bc bb 07 fd f1 bb 33 36 84 3c c1 94 6c bc
       -0.005746489 -0.0073848995 0.016139125 -0.014439763
000050 bd a8 0f bc a4 81 90 3b 4f 8a 65 bb 67 bd 8c ba
       -0.008768258 0.0044099856 -0.0035025065 -0.0010737599
000060 d4 83 af 3c 06 15 d7 bb 3a 16 cf 3b f5 9a f0 bb
       0.021425165 -0.0065637855 0.0063197883 -0.007342691
000070 09 77 c6 3b f0 ea c5 bb 88 73 ba 3c a9 26 c5 3c
       0.0060566706 -0.0060399696 0.022760168 0.024066286
000080 68 b7 ec 3b 8a 46 04 3c 2b d6 45 3c fc 2e 68 bc
       0.007224012 0.008073458 0.012074987 -0.014171358
000090 da ac 0a bc 59 fb 9b bb 0a cb a7 3c 6b 8b 19 bc
       -0.008464063 -0.0047601876 0.020482559 -0.009371619
0000a0 75 c1 d1 3b 7c cb 1b 3c 08 cb c8 bb 1a 7f a6 bb
       0.0064012357 0.009508964 -0.006127719 -0.0050810697
0000b0 1b fe a3 3c f7 87 95 3c 89 fc c3 ba bb ac 1e bc
       0.020018628 0.01825331 -0.0014952581 -0.009684737
0000c0 3c fb af 3c bf ca 19 bc 60 8d e1 3c ef b9 8d 3b
       0.021482103 -0.009386717 0.027533233 0.0043251435
0000d0 7a 9b 4d bc 89 e3 c5 3b 90 dc 04 bc e8 be b5 bb
       -0.0125492755 0.006039087 -0.008109227 -0.0055464394
0000e0 d4 a1 52 bc 5b e3 5c 3c 4c 49 1c 3c 5a 89 04 bc
       -0.012855966 0.01348194 0.00953896 -0.008089388
0000f0 5f 03 c0 3b 62 ed 0b bb d8 d4 82 3c eb db 3d 3c
       0.005859777 -0.0021351208 0.015970632 0.011588077

vitals_proj.1.running_mean f4 [64]
000000 bb 5e 45 3e 6f 28 62 bd 64 ba a1 be b5 4d a1 be
       0.19274418 -0.05521434 -0.31587517 -0.31504598
000010 24 dd 8a be 20 f3 a6 be ab 77 aa be 73 16 12 3e
       -0.27121842 -0.32607365 -0.33294424 0.14266376
000020 a1 ed a5 be e0 0c 54 3c ba f9 8b be 47 3e 6a 3c
       -0.3240786 0.012942523 -0.27338964 0.014297075
000030 3a f0 9a be b0 87 39 bd 65 65 33 be 72 d9 40 3e
       -0.30261403 -0.045295417 -0.17519148 0.18832949
000040 75 24 f3 3d 2f a6 63 bd f4 3b 27 3e 40 2d cf bd
       0.11872188 -0.055578407 0.16331464 -0.10116053
000050 6a fe 45 3e bd 7b ef bd 50 ae 57 be 4d 1f 6a 3e
       0.19335333 -0.11693523 -0.21062589 0.22863503
000060 21 a5 f7 3d f4 f0 02 3c ff e3 2e bd 10 2b 34 3e
       0.12092043 0.007992018 -0.042697903 0.17594552
000070 a1 0d d6 3d 26 40 42 be 12 bb 95 3e 76 f4 9c 3d
       0.10451818 -0.18969783 0.29244286 0.07663815
000080 71 5c c4 3c 97 d5 82 3e 77 9f 51 3e 24 fa 93 bd
       0.02396986 0.2555358 0.20470987 -0.07225445
000090 dc fc 82 3d 91 31 5b 3e f5 27 a3 be 0b b8 08 3d
       0.06395885 0.21405627 -0.31866422 0.033378642
0000a0 09 82 b3 be 0a c9 ae be 06 98 bc 3c 0b d0 e7 bd
       -0.35060146 -0.34137756 0.02302171 -0.11318978
0000b0 0f b8 93 3e 37 f0 7b bd f7 e6 85 3e 72 dd 50 bc
       0.28851363 -0.061508384 0.26152775 -0.012748109
0000c0 04 f1 66 3e 2b 7b 25 be 08 ef 65 3e e3 7d 7d bc
       0.22552878 -0.16160266 0.22454464 -0.015471908
0000d0 c9 bc 8b 3d e0 45 80 be 6f 1d 05 3d 34 14 87 bd
       0.06823117 -0.2505331 0.032498773 -0.0659565
0000e0 f6 34 ec 3d af 4e 23 bc b5 98 06 be 31 60 a4 bb
       0.11533539 -0.00996749 -0.1314419 -0.0050163497
0000f0 15 f3 85 3e 6b e7 11 3e 1b 41 8b be 7f 99 5b 3e
       0.2616202 0.14248435 -0.2719811 0.21445273

vitals_proj.1.running_var f4 [64]
000000 0e 3b ec 3d a7 a0 bf 3e 06 61 8e 3e 19 58 0b 3e
       0.11534701 0.37427256 0.27808398 0.13607825
000010 c5 01 b6 3e c6 83 de 3d 49 b5 03 3e 9c c2 f1 3e
       0.35548225 0.108649775 0.12862124 0.47218788
000020 d9 a6 ac 3e af 71 12 3e 0f 83 ce 3d be e5 6b 3d
       0.33721045 0.1430118 0.10083591 0.057592146
000030 7a 6a 8f 3e d8 59 97 3e 13 b5 a2 3e d2 b0 58 3e
       0.28010923 0.29560733 0.31778774 0.21161202
000040 d1 c1 4a 3e c5 24 a5 3e 34 6d 12 3e 09 83 6a 3e
       0.19800498 0.32254615 0.1429947 0.22901548
000050 73 2f 91 3e c2 98 3d 3e 34 34 be 3e e7 85 89 3e
       0.28356513 0.18515304 0.37149203 0.26859972
000060 7f 80 0a 3e 91 8b 76 3e 44 ff b9 3e d5 1c d4 3e
       0.1352558 0.24076678 0.36327565 0.41428247
000070 b3 42 05 3f e8 54 88 3e 19 96 0e 3d 73 cf 80 3e
       0.520549 0.26627278 0.034811113 0.2515827
000080 1f d3 e7 3d bb fc 58 3e 25 73 1e 3e 62 e8 80 3e
       0.11319565 0.21190159 0.15473612 0.25177294
000090 c3 51 69 3e 40 19 c1 3d f7 c2 8c 3e 4c d2 6d 3e
       0.22785096 0.09428644 0.27492496 0.23224753
0000a0 8d 7a 36 3e 4c 9e 2f 3e 4a 30 5d 3e 47 0f 2a 3f
       0.17820187 0.17150229 0.21600452 0.6642956
0000b0 0b 9b a7 3d 46 27 24 3e af 3a d0 3e 41 e6 52 3e
       0.08183869 0.16030607 0.40669772 0.20595647
0000c0 0f 90 8e 3e 7d d7 1d 3e 3b fc 59 3e 15 5f 3e 3e
       0.27844283 0.15414234 0.21287625 0.18590958
0000d0 d2 4b 4a 3e 13 5f 8c 3e 4d a1 ae 3e ed 38 e6 3d
       0.19755486 0.27416286 0.34107438 0.112413265
0000e0 e2 83 72 3e d2 1d a1 3e 07 56 c6 3e 05 a1 9f 3e
       0.23683122 0.31468064 0.3873751 0.31177536
0000f0 31 7b 12 3f ae 50 77 3e b7 11 aa 3e 37 78 3c 3f
       0.57219225 0.2415187 0.3321664 0.73620933

lab_proj.0.weight f4 [64, 5]
000000 4d f2 b7 be a5 4e c2 3e bd 10 78 3e cf cc 65 3e
       -0.35927048 0.37950626 0.24225135 0.2244141
000010 83 ae b7 be 40 a7 3a be cf cd c8 3d 1f 6d 69 ba
       -0.3587533 -0.18227863 0.0980488 -0.0008904505
000020 1e 97 59 3d e5 40 5e bd 77 2c 7d 3e 4d b1 76 3e
       0.053122632 -0.054261107 0.24723993 0.24091072
000030 80 50 a8 be e6 2f 4c bd 18 28 92 be 1d 18 5d bd
       -0.32873917 -0.049850367 -0.28546214 -0.053978074
000040 cc 17 05 3e a1 71 9c 3b 86 09 cd 3d 2a ed b6 3d
       0.12997359 0.004774288 0.10011582 0.08931954
000050 b8 1b 08 be 58 2f 8e 3e ab ef ad bc 43 ee 65 be
       -0.13291824 0.27770495 -0.021232447 -0.22454171
000060 3b e6 d0 3b 73 10 eb 3d a6 8d 56 3e 9c d3 89 be
       0.006375102 0.11477747 0.20952472 -0.26919258
000070 76 9e 4e 3e 73 1c b0 be db ce b4 be 4f 79 58 bd
       0.20177636 -0.34396705 -0.35314068 -0.052850064
000080 2a c8 dc b9 a8 ff 11 be ab f4 4d bb cb ad 2a be
       -0.00042110804 -0.14257681 -0.003142635 -0.1666786
000090 e2 b2 a2 3e 24 8a 54 be e1 69 54 be 77 4b 44 3e
       0.31777102 -0.20755821 -0.20743515 0.19169413
0000a0 78 d5 c7 3d 52 e1 9b be 81 c2 9d be 88 dc 2e be
       0.09757513 -0.30445343 -0.30812457 -0.17076313
0000b0 44 56 08 be 4a cf 3d bc 90 52 ce be aa a7 15 3e
       -0.13314158 -0.011585066 -0.40297365 0.1461474
0000c0 9f 36 00 bd 49 72 36 be b8 85 26 3d 74 5f 5c 3e
       -0.03130209 -0.17817034 0.040654868 0.21520787
0000d0 a1 db 47 3e 91 22 de 3d e3 b1 9c 3a ca cc 6b 3e
       0.19517376 0.10846437 0.001195487 0.2302734
0000e0 b8 16 83 3e 20 1a 91 3e 24 8f c6 bd b1 17 b2 3e
       0.2560327 0.28340244 -0.09695271 0.347837
0000f0 4d a8 b6 3e b3 46 9c be 77 3b d2 bd c7 9e 80 bd
       0.35675278 -0.3052269 -0.10265248 -0.062802844
000100 64 1e c6 3d 18 2e 94 3d 86 6e 98 be ab 25 59 3e
       0.09673765 0.07235354 -0.29771823 0.21205775
000110 42 a8 24 3e 7d 19 d4 3c 99 a1 38 be 21 ba 48 bd
       0.1607981 0.02589106 -0.18030395 -0.04900563
000120 b6 13 87 3e 67 a4 b2 3e 1e 99 43 be e6 dd a4 3e
       0.26382226 0.34891054 -0.19101378 0.32200545
000130 b4 34 69 be 48 3b 86 3d ec 58 17 3e 26 e0 4a 39
       -0.22774011 0.06554276 0.14780015 0.00019347723
000140 2c b6 be 3e ee c2 6f be a5 eb bf 3d f1 b0 87 3d
       0.3724836 -0.23414204 0.093711175 0.06625546
000150 ab b9 b8 3e ed 11 49 bd ae f8 ac 3e 81 21 41 3e
       0.36079153 -0.04908936 0.33783478 0.18860437
000160 8d b1 56 be 87 18 0c be ba 3a e1 bd f2 aa 63 be
       -0.20966168 -0.13681231 -0.10997529 -0.22233179
000170 36 eb a9 3e 24 45 8e be 9b ff 4b 3e a4 dd 6b bd
       0.33187264 -0.27787125 0.19921724 -0.05758442
000180 16 7a bd 3d e4 7d b3 3e 98 f6 be 3e 05 67 aa ba
       0.09251802 0.35056984 0.3729751 -0.0013000673
000190 80 13 48 3e 08 89 3d 3e 76 88 38 be 91 d2 05 be
       0.19538689 0.18509305 -0.18020806 -0.13068606
0001a0 88 b5 04 3e ce 4f 90 3e 78 9f b4 be 7a be 96 be
       0.12959874 0.28185886 -0.35277915 -0.29442197
0001b0 73 5c 27 3e 06 79 8f bd 6e 0b 3f be 1e b5 3d be
       0.1634386 -0.07005505 -0.18656704 -0.18526122
0001c0 65 29 56 bb f4 e5 71 3d 03 d6 ba 3e c3 1e 25 be
       -0.0032678482 0.05905719 0.36491403 -0.16125016
0001d0 43 5a 70 be e8 80 cb 3e ce 90 a9 be a0 4e 94 3d
       -0.23471932 0.39746785 -0.3311829 0.07241559
0001e0 64 2f a0 be e6 43 88 be 4d 4d 36 be 55 9b 89 3e
       -0.31286156 -0.26614302 -0.17802925 0.2687632
0001f0 49 1b 4b 3e 31 f5 12 3e ec 2f 50 be 08 f5 9a 3e
       0.19834627 0.14351346 -0.2033078 0.3026507
000200 93 df 63 3d 7c 67 b9 be 0a c2 d2 bd 2f 0b d2 3e
       0.05563314 -0.36211765 -0.10290916 0.41024157
000210 22 6d 86 39 9d 38 ab 3e 6c e2 87 bd 39 6d 31 bd
       0.00025639782 0.3344163 -0.066349834 -0.043317053
000220 19 d0 6a 3e 1b 8b c8 be ac f6 b6 3e 58 11 3a 3d
       0.22930945 -0.3916863 0.3573507 0.045426697
000230 f0 7d 87 3d 36 51 b7 3e 6e 17 24 3e 09 1f 59 3e
       0.066158175 0.35804147 0.16024563 0.21203245
000240 d2 9f 2b be 8a 5d 70 3e 31 1b 02 3e c4 1e 98 be
       -0.16760185 0.23473182 0.12705685 -0.29710972
000250 90 48 c7 3e 92 4a e6 3d f3 66 fc 3d a8 db 0e be
       0.38922548 0.11244692 0.123243235 -0.1395098
000260 9b f3 05 39 60 af 98 3e 1e 81 75 3e 92 34 a7 3c
       0.00012774619 0.298213 0.23975036 0.02041081
000270 a7 2c d0 3c e4 19 c2 3e 56 a6 ea bd 8a 3b ac be
       0.025411917 0.37910378 -0.11457507 -0.33639175
000280 c9 12 c8 be b6 31 05 3e 82 f9 b1 be a7 b6 5e 3e
       -0.39076832 0.13007244 -0.34760672 0.21749364
000290 16 53 90 3e 5c d5 7e 3d 37 83 30 3d e1 02 dc be
       0.2818839 0.062215194 0.043093886 -0.42970946
0002a0 95 75 bb 3d b3 24 6f be 08 e6 57 be e7 96 cf 3d
       0.09153286 -0.23353843 -0.21083844 0.10136204
0002b0 12 64 27 3e 78 24 7a 3d b1 93 b9 be 23 a2 17 3e
       0.16346768 0.061069936 -0.36245492 0.14807944
0002c0 8c a1 53 be 49 a6 8a be bc e0 9f be 5d ab 06 3c
       -0.20667094 -0.2707999 -0.31226146 0.008219567
0002d0 7f d8 91 3e 22 83 b8 be ab ca 1b be d6 13 69 3e
       0.28485486 -0.36037546 -0.1521403 0.22761473
0002e0 c6 f8 51 bd 48 88 66 be 2e 17 95 3e 84 56 aa bd
       -0.05126264 -0.22512925 0.29119247 -0.08317283
0002f0 e8 22 62 be 45 33 b9 3e 92 b5 9d 3e 53 c0 46 3e
       -0.22083628 0.36171928 0.3080259 0.19409303
000300 68 8c 39 bd 94 0b 8b 3e 1e 96 2a be fb a1 e4 bd
       -0.045299917 0.2715727 -0.16658828 -0.11163708
000310 34 f8 08 3e 61 ad c2 3d 40 2a 1e bd bc 68 56 3e
       0.13375932 0.09505726 -0.03861451 0.2093839
000320 bc cd ce be f5 14 c3 3e 31 f7 7f be e2 9d e6 3d
       -0.40391338 0.38101926 -0.2499664 0.112605825
000330 9c 38 9e 3e e4 e9 35 bd 7a bc ae be 34 fb 89 be
       0.30902565 -0.04441251 -0.3412817 -0.26949465
000340 24 86 b6 bd 34 15 95 be 1f ac ce 3e 21 9f f9 3d
       -0.08912304 -0.2911774 0.40365693 0.121885546
000350 86 3d af be 31 bc b6 3e 59 98 eb b7 07 49 45 be
       -0.34226626 0.35690454 -2.8085125e-05 -0.19266139
000360 b8 c0 a3 3c 0c 44 1c 3e 6c e6 a0 3e 1c 2f ac ba
       0.019989356 0.15260333 0.31425798 -0.0013136598
000370 1b e4 82 3e 50 8d 9f 3e dc 79 91 be de a2 d4 be
       0.25564656 0.311625 -0.28413284 -0.41530508
000380 fa 12 5f be 0d 4c 94 be 3e dc c3 3e 03 13 3f 3d
       -0.21784583 -0.28964272 0.3825397 0.04664899
000390 57 24 f7 bc 77 19 9c be e6 ee 7d 3e 38 a9 75 be
       -0.030168695 -0.30488178 0.24798164 -0.23990333
0003a0 82 f8 c0 3e 05 4f 6f 3e ff 3d a4 bd c3 ab c8 be
       0.37689596 0.23369987 -0.08019637 -0.39193544
0003b0 86 d7 ce 3e 2a 12 2f 3e 5f 95 56 bd 1f 17 9d 3e
       0.40398806 0.17096773 -0.052388545 0.30681702
0003c0 f4 81 8b 3e 7c 33 ac be 65 b7 50 bc 5b 60 06 3e
       0.27247584 -0.3363303 -0.012739037 0.13122694
0003d0 5c 0b 9c 3e bd fb 6b 3e 5b bd a0 be 25 50 9c 3e
       0.30477417 0.2304525 -0.31394467 0.30529895
0003e0 de a9 35 3e 19 db 92 be 45 ee fa bd 7f 73 c3 3c
       0.1774058 -0.28682783 -0.122524776 0.023858784
0003f0 7a fd a7 3e e4 1b 7e 3e 89 06 d3 bd 8c a2 28 3d
       0.32810575 0.24815327 -0.10303981 0.04117064

lab_proj.0.bias f4 [64]
000000 ca 87 03 be c9 92 31 3e 58 e6 11 3a 38 51 9b be
       -0.12844768 0.1734115 0.0005565635 -0.30335402
000010 ce 54 b1 be 4e bf 9d b8 05 50 70 3e bd 43 90 be
       -0.34635013 -7.521977e-05 0.23468025 -0.2817668
000020 ef a6 dd 3d d2 a6 bf be 08 09 55 b9 bc a0 e6 3c
       0.10822856 -0.3743196 -0.00020316627 0.028152816
000030 52 1b ad 3c 85 32 59 ba 68 7e 35 be 28 02 8e 3d
       0.021131191 -0.0008285421 -0.17724001 0.06934005
000040 c7 c2 6c bd d0 15 6e 3e 8a 3a 98 be 15 19 c0 3b
       -0.05780294 0.23250508 -0.29732162 0.005862365
000050 79 5a 0c 3e d1 c1 ed b8 3c fa 57 3e ba 47 1c 3d
       0.13706388 -0.00011337142 0.2109155 0.03815434
000060 58 34 3d 3e c9 b3 ab 3e 18 df fc 3d 72 af b3 be
       0.18476999 0.33535603 0.12347239 -0.35094792
000070 71 50 f4 3d c9 a9 8f 3e 2d b9 52 b9 17 ba 96 be
       0.119294055 0.28059223 -0.00020096144 -0.2943885
000080 2a af 8f be b0 91 53 be af 90 aa be 11 e7 f5 bd
       -0.28063327 -0.20661044 -0.3331351 -0.12006963
000090 5f e8 0f 3e 6c cf 16 ba 45 ab 9d be 6e 95 c3 be
       0.14053486 -0.0005752954 -0.3079473 -0.38199943
0000a0 20 58 ce bd 63 6a 8f be 6c bf 8b 3e 90 d7 f0 3d
       -0.10075402 -0.28010854 0.2729448 0.11759865
0000b0 26 b8 8a be 41 6e 81 3d 4b fd 92 bd ad 84 6c bd
       -0.2709362 0.063198574 -0.07177218 -0.057743717
0000c0 a7 16 51 3e 16 dd c5 3d da 98 ba be 74 ec 77 bd
       0.20418797 0.096613094 -0.3644474 -0.060528234
0000d0 7a 6f 23 bd 63 be ad 3e 36 76 b4 be b5 af 32 bd
       -0.039901234 0.33934316 -0.35246438 -0.0436246
0000e0 a9 ef 7e b9 10 0a ab ba 06 5e 93 3d be 78 96 bc
       -0.00024312608 -0.0013049264 0.07195668 -0.018368121
0000f0 ff 07 0e 3a a5 c3 b1 3e 32 6f 9a 3e 93 19 69 be
       0.00054180616 0.34719577 0.3016296 -0.22763662

lab_proj.1.weight f4 [64]
000000 e2 b2 77 3f cb a3 72 3f 52 94 76 3f 5e f4 70 3f
       0.9675733 0.9478118 0.9632007 0.94122875
000010 21 93 73 3f d0 a5 72 3f d5 16 73 3f f5 67 75 3f
       0.95146376 0.9478426 0.94956714 0.9586175
000020 fe 2c 74 3f fb 73 7a 3f 31 bf 72 3f 63 fd 6f 3f
       0.9538115 0.9783322 0.94822985 0.9374601
000030 8a 3d 7a 3f 3d 49 75 3f 87 c1 73 3f 0a 3a 74 3f
       0.9775015 0.9581488 0.95217174 0.9540106
000040 5a e9 78 3f 77 c4 73 3f c6 0d 78 3f a2 9c 78 3f
       0.97231066 0.95221657 0.96896017 0.97114
000050 ae 5e 74 3f 2c f9 75 3f 53 c7 76 3f ca a2 73 3f
       0.9545697 0.9608333 0.96397895 0.9517027
000060 33 0d 74 3f 88 cd 74 3f ee 31 75 3f 22 44 7c 3f
       0.9533264 0.95626116 0.9577931 0.9854146
000070 15 6e 73 3f c2 79 7a 3f fb ad 75 3f 9d 91 70 3f
       0.95089847 0.9784204 0.959686 0.9397219
000080 30 34 76 3f c0 8d 75 3f 76 bf 77 3f 3b 8d 75 3f
       0.9617338 0.9591942 0.9677652 0.95918626
000090 bd be 76 3f d1 30 72 3f 61 6e 7a 3f 32 c5 75 3f
       0.96384794 0.9460574 0.97824675 0.9600402
0000a0 9b 9e 78 3f 07 e5 79 3f e8 a0 76 3f d1 19 71 3f
       0.9711701 0.97615093 0.96339273 0.9418002
0000b0 85 34 74 3f 9c b2 77 3f 32 4e 75 3f ae 5c 74 3f
       0.9539264 0.9675691 0.9582244 0.9545392
0000c0 96 67 74 3f a2 3b 71 3f 7a 1a 78 3f 95 a7 74 3f
       0.9547056 0.9423162 0.969154 0.9556821
0000d0 e2 dd 71 3f b8 c5 72 3f 82 ba 73 3f bd 38 71 3f
       0.9447919 0.94832945 0.95206463 0.942272
0000e0 35 b5 74 3f f7 ac 73 3f c7 b7 74 3f 8c 6e 74 3f
       0.95589 0.951858 0.9559292 0.9548118
0000f0 b1 db 7b 3f 29 c6 71 3f 66 22 7b 3f 1f e4 75 3f
       0.983821 0.94442993 0.9809936 0.9605121

lab_proj.1.bias f4 [64]
000000 41 69 e2 3b e9 36 36 bc 72 67 13 3c 55 a7 67 3c
       0.00690952 -0.01112149 0.008996831 0.014139016
000010 ab d1 4c 3c f0 4c 4e bc 05 7b 1b bc 58 12 80 3b
       0.012501161 -0.0125915855 -0.009489779 0.0039084367
000020 c4 a5 b4 bb 10 31 03 bc f5 24 70 bc fe a8 85 3c
       -0.005512925 -0.008007303 -0.014657249 0.016315933
000030 06 98 b2 bb b9 ed 97 3b ce 79 26 3c c3 ff b3 3b
       -0.0054502515 0.004636493 0.010160876 0.0054931357
000040 c0 73 35 bb 38 01 8c 3b 3d 91 88 bc c9 7f 0f bc
       -0.00276874 0.004272606 -0.016670818 -0.008758494
000050 98 da 07 ba 26 bf 07 3c 0d 53 31 3c dd 8a 47 b8
       -0.00051824143 0.008285319 0.0108230235 -4.7574624e-05
000060 22 d0 9a 3c 18 ea d2 3b 5d 41 2e bc 1b ca 18 bc
       0.018898074 0.0064365976 -0.010635701 -0.009325529
000070 15 ec e1 bb a9 ca 11 bc b8 17 9d 3c e4 86 a5 3c
       -0.0068945982 -0.008898416 0.019176349 0.020205922
000080 f2 5d 7b bc e4 3d 1e bc 05 8b 5d 3c 06 64 36 bc
       -0.0153422225 -0.009658311 0.013521914 -0.011132246
000090 bf 2e 00 bc 77 bd e6 bb 6d 36 9b 3c ae ad 42 bc
       -0.007823645 -0.007041629 0.01894685 -0.011882229
0000a0 6a bb d1 bb 4d 66 48 3b 3f ab 05 bc 66 0d fd bb
       -0.0064005153 0.0030578554 -0.008158504 -0.0077225445
0000b0 2f f9 aa 3c f7 7e 91 3c c6 94 f0 bb 0c 29 90 bc
       0.020870773 0.017760737 -0.007341954 -0.017597698
0000c0 c3 6e 8b 3c a0 3f f9 bb 91 ba f8 3c b3 77 52 bc
       0.017020589 -0.0076064616 0.0303624 -0.012845921
0000d0 7f 79 82 bc 32 62 b0 3b f1 d6 c3 bb d0 79 fe bb
       -0.015927074 0.0053827995 -0.0059765507 -0.007765986
0000e0 0f fb 56 bc de 10 9f 3b 98 12 2e 3c c3 97 92 bc
       -0.0131213805 0.0048543056 0.01062455 -0.017894631
0000f0 33 c5 2d 3b 64 0d 74 3c 75 cd 3e bc 63 0f a7 ba
       0.0026515245 0.014895771 -0.011645664 -0.0012745674

lab_proj.1.running_mean f4 [64]
000000 54 21 0d be db 77 3c 3e 67 f4 bc ba 3f 81 a0 be
       -0.13782245 0.18405096 -0.0014416099 -0.31348607
000010 a1 bf b3 be b8 a1 4a bb c6 a7 80 3e 0e d5 91 be
       -0.3510714 -0.0030919146 0.25128 -0.2848286
000020 ac cd f7 3d 18 ed c3 be a0 84 99 bb 09 52 f4 3c
       0.12099776 -0.38266826 -0.0046849996 0.029824274
000030 c1 be ca 3c 57 21 a6 bb af a9 42 be 65 c4 90 3d
       0.024749162 -0.0050698924 -0.19010042 0.07068709
000040 ce d7 93 bd ef 56 78 3e e7 fc 9a be 8b be 4b 3b
       -0.07218896 0.24251913 -0.30271074 0.0031088914
000050 db e3 14 3e 28 03 24 bb 1f d0 63 3e 48 ab 4d 3d
       0.14540045 -0.0025026295 0.2224736 0.050212175
000060 5e ba 49 3e 28 04 ae 3e 7b d2 02 3e da 5e b9 be
       0.197 0.33987546 0.12775604 -0.36205178
000070 d0 ec f8 3d 3f b2 90 3e 3d d1 b0 bb 43 42 9c be
       0.121545434 0.2826099 -0.005396037 -0.30519304
000080 65 9d 91 be 66 cf 5b be 2c d0 ae be 29 96 fd bd
       -0.28440395 -0.21465835 -0.34143198 -0.123821564
000090 5a 97 13 3e 38 6a cb 3b a5 c6 a6 be a5 b4 c7 be
       0.14413205 0.0062077306 -0.3257343 -0.39005008
0000a0 09 bf d4 bd ee 73 91 be 1c e0 8b 3e 08 fb fc 3d
       -0.103879996 -0.2840876 0.2731942 0.12352568
0000b0 af d5 8d be dc 4e 98 3d b0 41 b6 bd 9e 0c 7c bd
       -0.2770209 0.07436916 -0.08899248 -0.06153547
0000c0 a6 60 55 3e 31 23 c8 3d 89 6b c1 be 30 3b 91 bd
       0.2083765 0.09772337 -0.37777355 -0.07091367
0000d0 2b ad 44 bd 54 50 af 3e 2d d9 b9 be a8 a3 51 bd
       -0.04801671 0.34240973 -0.36298504 -0.051181465
0000e0 2e 77 e6 ba 6e bc 09 bc a4 4a a9 3d 93 26 f6 bc
       -0.0017583126 -0.008406742 0.0826619 -0.03004769
0000f0 d6 f1 ac bb 03 13 b4 3e 7e df a2 3e 51 a3 6e be
       -0.0052778525 0.35170755 0.31811136 -0.23304488

lab_proj.1.running_var f4 [64]
000000 7e b8 0a 3e 6d 2a 9a 3c 90 a7 fa 3d e7 4a a2 3c
       0.1354694 0.018819058 0.12238991 0.019811107
000010 f3 a9 34 3e d3 c9 a6 3d 4d a8 26 3e d1 31 62 3e
       0.17642955 0.08143964 0.16275139 0.22089316
000020 27 95 fa 3d 02 62 09 3e fb 03 a9 3d 03 31 3f 3e
       0.1223548 0.13416293 0.08252712 0.1867104
000030 80 40 a4 3d d9 1d 1e 3e 28 1e 72 3e 00 75 1f 3e
       0.08020115 0.15441073 0.23644316 0.15571976
000040 59 eb 07 3e 2b fa 3a 3e 32 82 f0 3d 7c fa 8d 3e
       0.13273372 0.18259494 0.11743583 0.27730167
000050 46 84 d8 3d f9 6d 1d 3e 26 79 ad 3d 44 5a 2f 3e
       0.10572104 0.15373982 0.08470373 0.17124277
000060 07 f6 97 3e c3 89 a0 3d 45 12 5a 3e 35 eb 08 3e
       0.2967989 0.07838776 0.21296032 0.13370974
000070 19 c2 50 3e ac 26 7b 3e 02 57 44 3e 5e 7b d6 3c
       0.20386542 0.24526471 0.19173816 0.026181873
000080 8b c2 0c 3e 4d 0b 82 3c 32 98 b0 3c 22 3e 33 3e
       0.13746087 0.01587453 0.021556947 0.1750417
000090 85 a4 63 3e 33 52 57 3e 34 c4 84 3e 73 73 99 3c
       0.22230728 0.2102745 0.2593094 0.018731808
0000a0 45 52 12 3e 33 08 1f 3e 97 cd 9a 3e 47 17 26 3e
       0.14289196 0.15530472 0.30234978 0.16219817
0000b0 40 89 f8 3e 1f f9 f6 3d f1 b8 92 3e 7a 21 17 3e
       0.48542213 0.12059235 0.28656724 0.14758864
0000c0 f2 ab 1b 3e 37 3a 6a 3e 9a 55 0a 3e 36 bf 40 3e
       0.1520231 0.2287377 0.13509217 0.18822941
0000d0 b6 2d 00 3e af 83 4c 3e e1 9a f0 3e 3a 60 e6 3c
       0.12517437 0.19972108 0.46993163 0.028122056
0000e0 24 aa 25 3e de 15 96 3e 31 30 26 3e ae 71 cf 3d
       0.16178185 0.29313558 0.16229321 0.101291046
0000f0 cf 18 d0 3d 62 1b 2a 3e a1 60 30 3e 10 71 b1 3d
       0.10160982 0.16612008 0.17224361 0.08664143

drug_proj.0.weight f4 [64, 9]
000000 ff 52 ef 3d 25 3c f5 3d ab 53 2c be 9d e3 18 3d
       0.11685752 0.11974362 -0.16828792 0.037326444
000010 5d 87 f2 3d 90 52 24 3e 31 7b 97 3e 22 3f bd 3d
       0.11842225 0.1604712 0.29586175 0.09240557
000020 b5 ef 94 3e bf db 2c be f4 00 5c 3e d8 42 ef 3c
       0.29089132 -0.16880701 0.21484739 0.029206678
000030 ac 8e a5 be c8 e6 da bd a4 55 ab be 04 52 a1 3e
       -0.32335413 -0.10688549 -0.33463776 0.31507885
000040 23 bb 47 be 85 0c c8 3c 19 0e 03 be 42 6b 1d be
       -0.1950498 0.024420032 -0.12798347 -0.15372947
000050 16 a5 b1 3c ba 95 38 be 2a 8d 6f be 67 04 85 3e
       0.021685164 -0.18025866 -0.23393694 0.2597992
000060 82 2a 28 3e 12 d2 46 3e bc 60 3a be 14 42 0d 3e
       0.16422465 0.19416073 -0.18200964 0.13794738
000070 3e 8b 0b 3e fe ca 73 3e 50 e4 30 3d 9c a1 45 3e
       0.13627335 0.23807904 0.043186486 0.1929993
000080 6a 9b 4f be 4a 60 2c be fc 20 59 3d 0d bd 2a 3d
       -0.2027413 -0.16833606 0.053009972 0.0416842
000090 4d ce b1 bd a0 c5 a4 be dc 93 8f 3e b8 cc 66 be
       -0.08681927 -0.32182026 0.28042495 -0.22539032
0000a0 f4 02 96 3d 11 69 ad 3d 9b 69 8c be 94 f7 6e 3c
       0.07324782 0.084673055 -0.2742432 0.014585394
0000b0 46 d3 95 3e 31 18 59 3d 23 01 3d 3e 1d a5 6b 3e
       0.2926275 0.053001586 0.18457465 0.23012204
0000c0 90 82 9d 3e 02 8a 87 be 42 77 a7 3e 5d e5 3b 3d
       0.30763674 -0.2647248 0.32708174 0.045873035
0000d0 e0 09 38 3d df 24 6c 3e e8 fb 43 be 2d b4 e6 3d
       0.044931293 0.2306094 -0.19139063 0.112648346
0000e0 54 2a a1 3d 43 47 6c bd 5a ad d9 3d 95 84 60 3e
       0.078694016 -0.057685148 0.10628767 0.21925576
0000f0 e4 fd 90 be 22 a2 92 bd 8e 52 ac 3d 8e 1b 76 be
       -0.28318703 -0.07159831 0.084141836 -0.24033949
000100 7a 01 e8 bd 98 b9 6e 3e 81 a0 ac b9 a4 62 79 be
       -0.11328407 0.23312986 -0.0003292598 -0.24354035
000110 89 85 46 3e 9e 4b ad 3e 9d 0b 98 3e 8a 98 08 3e
       0.19386877 0.33846754 0.2969636 0.13339439
000120 ea 98 dc 3c c8 c4 03 3e a7 59 cf bc 6e 03 8b 3d
       0.026928384 0.12868035 -0.025311304 0.067877635
000130 0f 03 1d bc 81 94 32 bc 8c 4f 83 be 50 26 d8 3d
       -0.009583249 -0.010899664 -0.25646627 0.105541825
000140 d7 03 49 3a 66 c4 91 be 81 4d 23 bd 86 b2 4c be
       0.00076681137 -0.28470153 -0.039868835 -0.19989976
000150 a4 83 36 3e 8f 42 68 3d 74 83 1f be 51 64 1e be
       0.17823654 0.0567041 -0.15577489 -0.15467955
000160 61 f4 c2 3b 7c c3 a3 3e 5f ff 83 3e ed eb 56 be
       0.0059495424 0.3198508 0.2578077 -0.20988436
000170 3d 1f 27 3e 23 b5 a8 3e d7 6c 84 3b 15 1d bd 3c
       0.1632051 0.32950696 0.004041295 0.023085156
000180 b2 b7 ea 3b 33 bd 84 3e 72 26 5d be 3f fb 5a 3d
       0.0071630115 0.25925598 -0.21596697 0.053462263
000190 01 fc 38 3d b5 cb 4a bd 97 56 53 be 7d 8f 09 be
       0.045162205 -0.049510676 -0.206385 -0.13433643
0001a0 ab 6d 47 be 60 4a 33 bd 87 92 9b bd b1 d0 a8 bd
       -0.19475429 -0.0437721 -0.07596307 -0.0824293
0001b0 f2 3e 95 bd 7e 5d 68 be 70 73 92 be fa c3 4f 3d
       -0.072873965 -0.22691914 -0.28603697 0.050724007
0001c0 ea 04 2a 3e 90 80 7f be 61 d8 7d 3e 1e 62 a7 be
       0.16603437 -0.24951386 0.24789573 -0.32692045
0001d0 3b 27 22 be 31 c4 0b 3e 3f c6 eb bd f2 71 1e 3d
       -0.15835278 0.1364906 -0.11512422 0.038682885
0001e0 40 e8 d9 3d 91 4e 84 3e 13 28 56 3e c2 5d db bd
       0.10640001 0.2584119 0.20913725 -0.10711242
0001f0 f1 83 83 3e ed 65 69 be 0b e0 54 3e 55 c8 4f 3e
       0.256866 -0.22792788 0.2078859 0.20291264
000200 83 33 48 be 17 55 5c bd 00 e5 9f be 18 36 5f be
       -0.195509 -0.053792085 -0.312294 -0.21797979
000210 b0 5a 50 3d c5 b1 34 3e 1b 40 94 be 8c d8 c6 3d
       0.050867736 0.17645939 -0.2895516 0.09709272
000220 26 b5 96 be 94 53 db 3c b3 08 4f 3e 19 91 ff 3d
       -0.2943508 0.026773252 0.20218162 0.12478847
000230 2b 05 66 be 40 01 3f 3d f5 14 3d 3e 8e 55 1c 3e
       -0.22462909 0.04663205 0.18465026 0.15267012
000240 15 b1 c2 bd da 92 0a be 4b c4 77 be 94 57 8c 3d
       -0.09506432 -0.13532582 -0.24195974 0.06852642
000250 92 f0 9d 3e 9b 4c 18 3d 3c d0 0f be 05 7b 65 be
       0.30847603 0.03718243 -0.14044279 -0.2241021
000260 77 01 1b be 26 5e 1f be f7 ba 21 3c 7d 48 fc bd
       -0.15137278 -0.15563259 0.009871236 -0.123185135
000270 82 6f 89 3e d5 69 27 be 81 60 58 be d4 6e 02 3c
       0.26842886 -0.16348965 -0.21130563 0.007960994
000280 bf 9f 7b 3e 97 2a a3 be b1 6c ac 3e 16 57 72 3e
       0.24572657 -0.3186843 0.33676675 0.23666033
000290 c1 d4 62 3d c8 35 bd bd d4 60 f5 bd 43 39 fa 3b
       0.05537868 -0.092387736 -0.11981359 0.0076362207
0002a0 ca 09 05 3e ba 41 34 be 8c 5c 14 3e b9 59 2a 3e
       0.12992015 -0.17603198 0.14488429 0.16635789
0002b0 b6 8f 1e bd 3d c9 9e 3e 64 12 96 be 00 02 77 3d
       -0.038711272 0.31012908 -0.29310906 0.06030464
0002c0 08 c4 87 3e 05 fc 8f 3e ec b7 8a 3e 0e 9c 95 be
       0.26516747 0.28121963 0.27093446 -0.29220623
0002d0 86 0f 8f be 3a 95 c7 bd 3b 21 02 bd 3d 09 2d be
       -0.2794153 -0.097452596 -0.031769972 -0.16898055
0002e0 ec f1 36 be 00 f2 03 be 4d 46 57 be 81 85 91 3d
       -0.17865723 -0.12885284 -0.21022911 0.07105542
0002f0 67 34 52 be 06 59 ab 3e e9 82 63 be 82 4c 91 3d
       -0.20527802 0.33466357 -0.22217907 0.07094671
000300 37 bb d7 3a 2c e3 58 3e 0d 76 92 3e 97 c0 90 be
       0.0016458993 0.21180409 0.2860569 -0.28271934
000310 eb a4 4e be b8 61 9f 3c 23 fa 95 be cd 51 33 3e
       -0.20180099 0.019455776 -0.29292402 0.17511673
000320 bf a9 29 3e 40 07 53 3d 17 d1 50 be e7 a2 86 3d
       0.16568659 0.051520586 -0.20392261 0.0657404
000330 38 1f 21 be af 91 9f bd c8 64 23 3e 5a 8d 9e be
       -0.15734565 -0.07791459 0.15956414 -0.30967218
000340 5b fc 90 be 48 67 9a 3e 4f 91 6f 3e 0a 12 df bd
       -0.28317532 0.30156922 0.23395275 -0.108921126
000350 2c 33 a1 be 16 99 4c be 5d c1 21 3c 68 3b 8d be
       -0.31484354 -0.19980273 0.009872762 -0.27584386
000360 ec 15 1b 3e a0 56 9b be f8 a2 84 3e 7b 41 8a be
       0.15145081 -0.30339527 0.25905585 -0.27003083
000370 ac 0c 14 3d 82 7b aa 3e ca 30 10 bb 5e ef c2 bd
       0.036144897 0.33297354 -0.0022001737 -0.09518312
000380 eb 49 92 3d 02 c6 cf 3d c7 8e 10 bd 7c 96 b8 3d
       0.07143005 0.10145189 -0.035292413 0.090130776
000390 f5 73 ab 3b 86 e6 03 3e 25 41 66 be f4 9d a0 be
       0.005232329 0.12880906 -0.22485788 -0.3137051
0003a0 cc 3b 69 be bf 30 70 be 47 d2 e5 bd 41 79 90 3e
       -0.22776717 -0.23456095 -0.11221748 0.2821751
0003b0 e7 4f de 3c b5 10 37 be 89 6a 09 be f5 2e a7 bc
       0.02713771 -0.17877467 -0.13419546 -0.020408133
0003c0 1f 41 8d 3d 90 29 6a 3b 6d e4 a3 bd 5c 66 76 3e
       0.068971865 0.003573034 -0.08002553 0.24062485
0003d0 4b f8 28 be 7a 1b 26 3e e3 92 64 bc bf 74 55 3d
       -0.16500966 0.16221419 -0.013951036 0.05211329
0003e0 98 21 d8 bc c5 68 4d 3e 75 56 31 3e 21 cf a0 be
       -0.026383206 0.20059498 0.17318137 -0.31408027
0003f0 e6 77 5e be fe 29 98 bc 28 47 ee bd 44 35 86 3e
       -0.21725425 -0.018574711 -0.11634666 0.26212513

drug_proj.0.bias f4 [64]
000000 9e a7 19 be c8 2a a5 b9 00 31 27 be a5 c7 1a 3e
       -0.15005347 -0.00031503127 -0.16327286 0.15115221
000010 de 9f ac ba e5 47 19 be fc ea 83 3e 44 1b 9b 38
       -0.0013170203 -0.14968832 0.25765216 7.3960546e-05
000020 95 04 5b be 82 4b 1e be 4a e7 da bd 94 0b 8e 3d
       -0.21388467 -0.15458491 -0.10688646 0.06935802
000030 d8 2d b4 3d 63 90 fa 3c ab 53 02 be 42 0f 57 3b
       0.087978065 0.030586427 -0.1272723 0.003281549
000040 5e d6 07 be 35 36 08 be 0a 47 2d be 08 fd af b9
       -0.13265368 -0.13301928 -0.1692163 -0.00033567124
000050 6c 24 88 bd 2b 14 82 be 60 f4 92 bd aa 4f f9 bc
       -0.06647572 -0.25406012 -0.07175517 -0.030433495
000060 30 be 7a be 1c 83 ac 3a ab b9 ec bd e0 40 66 3d
       -0.24486613 0.0013161632 -0.11558851 0.056214213
000070 f3 c5 bc bd 5d 58 99 bd 00 50 6d 3e 01 5e 95 3d
       -0.09217443 -0.07487557 0.23175049 0.072933204
000080 56 ff bd 3d 8a 18 0e be 73 c3 80 bd 7f 17 57 3e
       0.09277217 -0.13876548 -0.06287279 0.21005057
000090 4b fd 18 3a e9 c0 28 3e 47 94 1f 3d 99 83 4c be
       0.00058360834 0.1647984 0.038959768 -0.19972076
0000a0 38 17 64 3d 44 3c 24 3d b2 b8 08 3e 52 ab 5f bd
       0.055686206 0.040096536 0.13351706 -0.054606743
0000b0 05 ff 85 be eb c2 90 3a 89 0a 36 be b5 65 1a be
       -0.26171127 0.0011044418 -0.17777456 -0.1507786
0000c0 09 3e 89 be 72 31 62 be 2c 45 29 3e 0a 2d 84 bb
       -0.26805142 -0.22089174 0.16530293 -0.0040336894
0000d0 55 85 09 be 8d 6a 74 bd 40 e0 7e 3e 00 94 81 bc
       -0.13429768 -0.059671927 0.24890232 -0.015817642
0000e0 0f 9f a8 3d ed 7e a1 3d 76 e6 3f bc c2 f4 1d 3e
       0.08233463 0.07885537 -0.011712661 0.15425399
0000f0 bd b1 71 3e 2a 27 76 3e 28 70 6c 3b 1d 38 0e be
       0.23602958 0.24038377 0.0036077593 -0.13888593

drug_proj.1.weight f4 [64]
000000 51 8d 80 3f 81 62 79 3f 2a 27 78 3f 76 63 7d 3f
       1.0043126 0.9741593 0.9693476 0.9897989
000010 5c 77 79 3f f1 c3 7a 3f 4e 9e 7f 3f 49 f4 78 3f
       0.9744775 0.9795523 0.9985093 0.9724775
000020 63 10 78 3f 55 e7 80 3f 9e 2b 7d 3f 43 83 77 3f
       0.96900004 1.0070597 0.9889468 0.96684664
000030 52 f8 76 3f 4f 1e 77 3f 4f f0 78 3f 89 89 78 3f
       0.96472657 0.9653062 0.9724168 0.9708486
000040 1f 8a 78 3f 9d 1f 78 3f d5 53 81 3f dc c2 77 3f
       0.97085756 0.9692324 1.0103709 0.96781707
000050 ea 44 76 3f cd 5b 7a 3f 2d d1 7d 3f d3 02 76 3f
       0.96198905 0.97796327 0.991473 0.9609806
000060 8f 12 82 3f d6 46 78 3f 41 6b 7f 3f 07 9e 80 3f
       1.0161914 0.9698309 0.9977303 1.0048226
000070 8d ac 76 3f 0d 01 82 3f 65 57 7c 3f 9e 33 79 3f
       0.9635704 1.0156571 0.98570853 0.97344387
000080 9e 21 7b 3f e4 34 77 3f ae 93 7b 3f ae 8f 7b 3f
       0.9809817 0.9656508 0.98272216 0.9826611
000090 b5 ff 7b 3f a7 be 7d 3f 5b ca 7f 3f ed 86 7c 3f
       0.9843705 0.9911904 0.99918145 0.9864338
0000a0 08 a1 7b 3f 69 66 76 3f 2c 2c 77 3f 83 d5 7b 3f
       0.9829259 0.96250015 0.96551776 0.9837267
0000b0 66 5e 7a 3f 15 78 7b 3f c8 44 80 3f fe 73 76 3f
       0.9780029 0.98230106 1.002099 0.9627074
0000c0 24 3d 80 3f 62 1f 78 3f 63 8c 7a 3f 4a 48 77 3f
       1.0018659 0.96922886 0.97870463 0.9659468
0000d0 0a 85 76 3f 24 4a 80 3f 3c 1d 81 3f 67 25 7a 3f
       0.9629675 1.0022626 1.0087047 0.9771332
0000e0 5f f8 7a 3f 66 a5 79 3f 1c 0b 7e 3f dc db 80 3f
       0.98035234 0.97518003 0.992357 1.0067096
0000f0 96 90 79 3f 20 c8 7d 3f 18 95 81 3f 23 59 7b 3f
       0.97486246 0.9913349 1.0123625 0.98182887

drug_proj.1.bias f4 [64]
000000 69 a0 5e 3c 2c e3 82 bc 95 e6 02 3c f1 a5 57 3c
       0.013588049 -0.015977465 0.007989545 0.013162122
000010 92 68 06 3c 42 ac 8d bc ac 53 5a bc 8e 4f b7 bc
       0.008203642 -0.017294053 -0.013325613 -0.022376802
000020 dd cb a8 bc 26 da 5e bc 0f a3 aa bb ff 29 4c 3c
       -0.020605022 -0.013601815 -0.0052074264 0.0124611845
000030 27 b6 a8 ba 5b ee d8 bc 94 71 ef 3b ef 7b 2c bc
       -0.0012871668 -0.026480844 0.0073072407 -0.010527595
000040 33 a2 47 bc 0f 17 ab 3b 5e 53 fc 3b 23 8b 9a bc
       -0.012184667 0.0052212547 0.007700368 -0.018865174
000050 25 29 6b bb f8 d0 ab bc 3f 19 59 3c f0 c5 16 3c
       -0.0035882678 -0.020973668 0.013250648 0.009202465
000060 91 c5 b2 3c 9d c3 24 3c 2e 7d ab 3c 70 64 48 3c
       0.021822723 0.010056403 0.020933714 0.012230977
000070 fc 85 ca bc fc 2d 94 3c 95 83 82 3c 9b a2 83 bc
       -0.024722092 0.018088333 0.015931884 -0.016068747
000080 b9 6b 6f bb a3 89 f5 bc 1b e2 8e 3c 12 8c 82 bc
       -0.0036532714 -0.029972857 0.0174418 -0.015935931
000090 be 75 60 ba 0b b8 f7 3b 8a 80 a4 3c 42 69 7c 3b
       -0.0008562467 0.0075597814 0.020080823 0.0038514887
0000a0 00 0c 2d 3b 08 ef 29 bc cb 04 f4 3b 50 7a 2f bb
       0.0026404858 -0.010371931 0.0074468604 -0.0026775785
0000b0 50 22 0a bc ce da 8a 3c 8c ce 50 bc 58 f0 d0 bc
       -0.008431032 0.016950037 -0.012744557 -0.02550523
0000c0 61 01 a9 3c f9 da 4a bb d0 2f af 3c 78 b5 2a 3b
       0.02063054 -0.0030953272 0.021385103 0.0026048105
0000d0 a6 83 eb bc f7 ce 46 3c 9f de 64 3c a9 84 4a bc
       -0.028749298 0.012134305 0.013969093 -0.01236073
0000e0 ed 57 86 bc b4 f7 88 bc d2 0e 0f 3c 23 34 61 3c
       -0.016399348 -0.016719677 0.008731561 0.0137453405
0000f0 22 c4 98 3b 98 3a 3d 3b cb 03 37 bb a8 64 d2 bb
       0.0046620527 0.0028874036 -0.0027925845 -0.0064206906

drug_proj.1.running_mean f4 [64]
000000 0a b5 fe bd 15 7d 8e bc 98 60 39 be 37 46 33 3e
       -0.12436874 -0.017393628 -0.18103254 0.17507254
000010 a0 45 cb bb 7c 1f f9 bd e1 84 88 3e 6c 7b 94 3c
       -0.0062033683 -0.12164208 0.2666388 0.018125258
000020 34 74 63 be c4 21 2f be 8e de c4 bd d9 c9 61 3d
       -0.22212297 -0.17102724 -0.096127614 0.055124138
000030 7f b7 8f 3d 62 ef 60 3d 0e ac 19 be a3 f5 8f 3c
       0.07017421 0.054915793 -0.1500704 0.017573183
000040 8b c7 22 be 5b 03 20 be 2b ef 24 be 06 10 b1 3c
       -0.15896432 -0.1562628 -0.1610686 0.021614086
000050 e4 c3 eb bd a7 f4 82 be c7 4b ab bd 9d 79 8b bd
       -0.115119725 -0.2557728 -0.08364063 -0.06810305
000060 95 e0 7e be e3 72 b2 bc 67 04 05 be 58 fb 95 3d
       -0.24890359 -0.021783298 -0.1298996 0.07323331
000070 24 75 b3 bd 8c 33 7f bd 14 bc 6d 3e 1c c2 f9 3d
       -0.08762577 -0.06230502 0.23216277 0.121952266
000080 dd ed d0 3d 99 b3 f8 bd d7 d3 a4 bd eb 88 61 3e
       0.10201619 -0.121436305 -0.08048218 0.22024886
000090 ff 78 1e 3d 4b d6 3d 3e 9d 73 d5 3c 4d 51 48 be
       0.03868961 0.18538778 0.026056105 -0.19562264
0000a0 89 2a 64 3d 23 b9 1d 3d 2e e7 0b 3e 8a 6f 6b bd
       0.055704627 0.03850664 0.13662407 -0.05747942
0000b0 65 85 6f be d6 99 05 bc 6c 2c 49 be 25 eb 0e be
       -0.2339073 -0.008154353 -0.19645852 -0.13956888
0000c0 a4 fb 76 be b1 e0 78 be 87 83 1f 3e 2a dd 02 bd
       -0.24119431 -0.24304463 0.15577517 -0.0319492
0000d0 b9 68 08 be 16 ff 6f bd 9f d8 8e 3e ee 9c 53 bd
       -0.13321199 -0.05859288 0.27899644 -0.05166333
0000e0 55 f7 ba 3d 44 5a be 3d f9 9f f9 bc 75 fd 2e 3e
       0.09129206 0.092945606 -0.030471789 0.17088874
0000f0 29 98 70 3e 67 61 8b 3e b1 62 ad 3c 52 28 12 be
       0.23495544 0.2722275 0.021165224 -0.14273193

drug_proj.1.running_var f4 [64]
000000 95 a7 26 3c 68 b2 6f 3c 65 6b 20 3c 23 86 f4 3b
       0.010171791 0.014629938 0.00979123 0.0074622794
000010 36 a4 5c 3c 86 d2 6f 3c be 83 e9 3b e6 3b 6d 3c
       0.013466885 0.014637595 0.0071263006 0.014479613
000020 8c a7 82 3b dd 1f 2a 3c a0 97 49 3c cd f0 a1 3b
       0.0039872583 0.010383573 0.012304217 0.004942036
000030 c3 c5 65 3c f0 ef 21 3c 17 79 52 3c 5f 9e 13 3c
       0.014024201 0.009883866 0.012846253 0.009009927
000040 57 7d 20 3c 2d cb 3e 3c e9 4d 16 3c 07 e8 89 3c
       0.009795508 0.011645121 0.009173849 0.016834272
000050 3d 82 23 3c 23 26 5d 3c 19 65 0b 3c 42 89 95 3c
       0.009979782 0.013497862 0.00850799 0.018253926
000060 f6 cf 4c 3c ef 2a 27 3c 79 76 bd 3b 3b df 1c 3c
       0.012500754 0.010203107 0.0057819453 0.009574707
000070 32 e8 3f 3c a2 c2 c9 3b b7 5a 79 3c 41 75 66 3c
       0.0117130745 0.0061572352 0.015219382 0.014066041
000080 4c a8 14 3c 95 88 48 3c 90 7a 34 3c 07 b0 0f 3c
       0.009073328 0.012239595 0.011015549 0.0087699955
000090 78 72 62 3c e5 e2 2d 3c ab 71 df 3b b6 33 04 3c
       0.013821237 0.010613178 0.00681897 0.0080689695
0000a0 e1 5a 55 3c f2 9c 2d 3c ac a3 8b 3c d1 c3 30 3c
       0.0130221555 0.010596501 0.017045818 0.010788874
0000b0 a7 11 30 3c 2d d5 2a 3c fb 17 30 3c b4 e5 33 3c
       0.010746396 0.010426802 0.010747905 0.010980058
0000c0 c4 f8 48 3c 0e 19 4a 3c de 66 61 3c e2 55 f9 3b
       0.012266342 0.012335075 0.013757436 0.007609115
0000d0 a4 01 4d 3c 33 27 54 3c ef 49 00 3c 11 ab 17 3c
       0.012512598 0.012948799 0.007830127 0.009257094
0000e0 e3 9c 17 3c c5 cd e5 3b a2 93 63 3c 28 61 22 3c
       0.009253713 0.007013055 0.013890179 0.009910859
0000f0 e7 2d ee 3b a2 c1 01 3c 47 c1 03 3c f7 16 44 3c
       0.0072686556 0.007919701 0.008041686 0.011968366
