models/best_model.pt (torch, 239010 bytes, 46 tensors)

vitals_proj.0.weight f4 [64, 6]
00000000: b7e3 cd3e bce7 aabe aab6 8ebe 67d9 9d3b
00000010: d6c8 5e3e f03e 6a3e b255 94bd f18a 6a3e
00000020: 2b1d 7f3c 8eea 84be fe2f b6be cb23 803e
00000030: 2d58 283d 537c 8fbe 0cba 54be f973 56be
00000040: f5a7 2d3d 2a5d 973d 8cf5 193e 09e1 1c3d
00000050: 2c88 873e 102e 933e 3a3d 1fbe 26a5 993e
00000060: da9a 65be 551b ddbc 2ee6 acbe c7bb 3c3e
00000070: a00c 8dbd a1b0 15be e284 80be 3cfb 11be
00000080: b911 e7bd a42c c4bd d6d3 273e ed75 51be
00000090: 4545 563d 1c6c 863e 1523 013e e573 4b3e
000000a0: edb4 fb3d 1388 80be 84f2 60bc 3e99 7f3d
000000b0: cb5c ee3d 0253 9bbe bd04 77bd feea 3fbe
000000c0: 9cfb bc3e a366 c5be 8197 023e 2606 83bd
000000d0: f57f 963e 4434 5e3e 7722 4dbe 24f4 a73e
000000e0: a686 22be 3deb 843c e966 94be ef6e 9abe
000000f0: 4071 303e ee86 123e da9d 26be 1759 8b3d
00000100: eea6 4fbe b033 50be 7d1b 9dbe 3c63 823e
00000110: a68f 913d 67f5 543c 35fd 9abe 8564 10be
00000120: 9d30 a53e 4540 653e 9078 883e ddad 4dbe
00000130: 740a 843e 2d66 f93c 45d0 3fbe 7538 233e
00000140: f34f db3c 40f4 8ebe 02e8 9dbe f195 1abc
00000150: c368 a83e 8194 283e 9cff 783d 0bf4 f73c
00000160: 0b8b 82bd 3b9d b63e 62e7 113e 5a31 de3c
00000170: eed1 433e ea64 68be e525 7cbc d4ea 933c
00000180: 28b4 e1bd bd40 c63e eb07 9ebe d0e8 efbd
00000190: 00d7 3f3e 746b 6f3e 5640 c13e 23b9 b1be
000001a0: 6b2e 96be c2c9 b1be 7483 a43e 260b c2be
000001b0: 45db 95bd e639 083e 8c4a 34bd fe56 ab3c
000001c0: f6fb 903d 520b 96be 48f1 033d 7608 31bd
000001d0: 1ce0 eb3d 181c 1bbd fe2a cfbd a04c d2bd
000001e0: b493 84bd c8f2 043e d7d1 503d c94e 2c3c
000001f0: 953c 58be 1733 063d de72 0a3e 04bd b53e
00000200: 3ba2 d8bd 707f 34be 0fa1 2fbe b3f2 363e
00000210: bba7 8bbe 6bbe f1bd 876d 1c3e 2fd0 38be
00000220: fbbf 8ebe 328a 8e3e b795 943e 8782 f0bd
00000230: 8b9b 75bd 2fd9 8bbe 0efe c4bd c91d 6ebe
00000240: 8b2c 44be 907a 9f3c 3492 45bd 05c4 6fbe
00000250: 6b29 82be ff04 8b3e 72c4 aabe 0932 063d
00000260: 7f25 a7be 037c b2be 4f9c be3e 73b8 12bc
00000270: 7db4 533e 5e72 34be d2c5 b53e b2d8 b1be
00000280: 3497 383d 9f04 9c3e 38fb 883e c1da a43e
00000290: 686d a3be a9fd 1fbe b9ea b8be ab28 643e
000002a0: 046b c1be 9032 923e 514e 9dbe e134 f9bd
000002b0: fd4f b73e 2e46 bfbe ec6f 15be e3bc 8f3e
000002c0: 2aa6 913e 1f74 953e 3afc 1c3e ee00 883d
000002d0: 4f46 a8be b16d a13d 3935 0bbe e5fd 65be
000002e0: 9c0a 03bd bd14 ae3e a642 dc3d 73d4 5dbe
000002f0: 7d40 b03d 49c0 06bd 9674 3dbe 5b95 a4be
00000300: 8d9d a7be 7592 bf3e 9a6e 13be 4b8d 42bd
00000310: 161c cabe 477a b53e bb50 bfbe bcb2 2b3e
00000320: 88a8 e0bd 12d9 14be 63f1 c43e 7e41 9f3d
00000330: 59bd c33d c938 7a3e 5953 993e f269 943e
00000340: feb8 d5bc 590d f9bd 2c17 8f3e 087f ac3e
00000350: 380f 593e 6df8 0a3b c4e9 093d 3779 9d3c
00000360: bbb4 91be 28ae b8be eb27 a93e 91d4 a93e
00000370: eab7 c33e 32ff 29be 429a 863e 17f3 31bd
00000380: 8b9f 003e 91ce 48be 34aa c83d febb 5f3e
00000390: 0b2a 47be 4474 e73d 6515 8e3e 7fdb 923e
000003a0: 70a8 2e3c 9564 f8bd 5461 f23c 66fd ae3e
000003b0: b40c 3e3a 94ce 6c3e 2207 f8bd 49cb 9f3e
000003c0: 5b2d 1e3e 241b 153e 93d7 5dbe 0be3 213b
000003d0: ab46 113e cdfc 733e eda5 bebd e186 ac3e
000003e0: 9f81 4b3d 05d6 9ebe f062 033e 6f04 923d
000003f0: 00d3 acbe 3d32 e73c c66f 8cbe 69e9 40bc
0.40212795 -0.33379924 -0.27873737 0.004817176 0.217563 0.22875571 -0.072429076 0.22904564
0.015570919 -0.259602 -0.3558349 0.25027308 0.041099716 -0.2802454 -0.20774096 -0.20942678
0.042396504 0.073908165 0.15035075 0.038300548 0.26471078 0.2874608 -0.155507 0.3000881
-0.22422352 -0.026990572 -0.33769363 0.18431006 -0.06887174 -0.1461816 -0.25101382 -0.14255995
-0.11282677 -0.09578827 0.16389403 -0.20455141 0.052312154 0.26254356 0.12611039 0.19868429
0.12290368 -0.25103816 -0.013729695 0.062402003 0.116387926 -0.30336767 -0.060307253 -0.18741986
0.36910713 -0.38554868 0.12753107 -0.06397657 0.29394498 0.21699625 -0.20032679 0.32803452
-0.15871677 0.016225452 -0.28984764 -0.3016276 0.17230701 0.14309284 -0.16271153 0.06804102
-0.20278522 -0.20332217 -0.30685034 0.25466335 0.07107477 0.012997962 -0.30271307 -0.14100845
0.32263651 0.22387798 0.26654482 -0.20085855 0.25789225 0.030444229 -0.18731792 0.15939505
0.026771521 -0.27920723 -0.3084107 -0.009435163 0.32892427 0.164629 0.060790643 0.030267736
-0.063741766 0.35666832 0.14248422 0.027123142 0.1912305 -0.22694746 -0.015389894 0.01805631
-0.1102069 0.38721266 -0.30865416 -0.11714327 0.1873436 0.23380834 0.37744397 -0.3471156
-0.2933229 -0.34724241 0.3213154 -0.3789913 -0.07317213 0.13303337 -0.044016406 0.020915505
0.07079308 -0.29305512 0.032212526 -0.04322096 0.11517355 -0.03786859 -0.10115622 -0.10268521
-0.06473485 0.12983239 0.05098137 0.010516831 -0.2111686 0.032763567 0.13520381 0.3549577
-0.10577818 -0.17626739 -0.17151283 0.1786602 -0.27276406 -0.118038975 0.15276156 -0.18048166
-0.27880844 0.2783981 0.29020473 -0.11743646 -0.05996279 -0.27314135 -0.096187696 -0.2325355
-0.19157617 0.019467622 -0.048235133 -0.2341462 -0.25422224 0.2715225 -0.33353 0.03276256
-0.32645795 -0.34860238 0.3722863 -0.008955109 0.2067432 -0.17621753 0.35502487 -0.34735638
0.045066074 0.30472276 0.26754165 0.32198146 -0.31919408 -0.15624107 -0.3611658 0.22281139
-0.3777696 0.285542 -0.30723813 -0.12168289 0.35803214 -0.3735823 -0.14593476 0.28073797
0.28447086 0.29190156 0.15330592 0.06640802 -0.3286614 0.0788225 -0.13594522 -0.22460134
-0.03199254 0.34000197 0.107549 -0.21663074 0.0860605 -0.03289822 -0.18501505 -0.321452
-0.3273739 0.37416425 -0.1439766 -0.04749803 -0.39474553 0.35444853 -0.3736628 0.167674
-0.10969645 -0.14535931 0.38465413 0.077761635 0.095575996 0.24435724 0.29946402 0.2898708
-0.026089188 -0.12160749 0.27947366 0.33690667 0.21197212 0.0021205202 0.033670202 0.019222839
-0.284582 -0.3607037 0.33038267 0.33169988 0.38226253 -0.16601256 0.26289564 -0.04344472
0.12560861 -0.19610049 0.09798089 0.21849057 -0.19449632 0.11301473 0.27750698 0.28683087
0.010660276 -0.121285595 0.029587425 0.34177703 0.0007249818 0.23125678 -0.121107355 0.31209782
0.15446989 0.14561135 -0.21664266 0.0024701979 0.14187114 0.23826905 -0.093089916 0.33696654
0.049684163 -0.3102266 0.1283071 0.07129752 -0.3375473 0.028222198 -0.27429026 -0.011774399

vitals_proj.0.bias f4 [64]
00000000: 92b9 e1bc 0524 05bc 6538 183a 86d5 0cbd
00000010: f7ad 683e 1795 0739 e770 8d3e db30 9fbd
00000020: d696 b737 fe9f c239 f078 bc3d 70b7 75be
00000030: c00c 5fbd ca62 95be 1561 97be 6098 6d3e
00000040: dd5d f7b9 fb94 5f3c 309c 023e 0923 92be
00000050: a68f ab3d af2e 5037 8fb6 5c3e 52ed 273e
00000060: 121c cebd e2f7 84bd 9319 96bd d51c 5b3e
00000070: 16b5 533a cbdf a73e 8dc0 aebd b488 9ebe
00000080: 867b f0bb 2dea 30be bba4 463e 6d54 0f3c
00000090: 0926 2e3e 866e 3a3e 6e52 6bbe 9c5d b03d
000000a0: 1048 99be b088 b33d d02d 8ebe 1ec5 22bd
000000b0: ab87 773e cfc8 32be 55c9 e83d ea38 a63e
000000c0: 3ddc d13b 6e60 693c 57ca 96be 52bd 923e
000000d0: 89e1 0abd 71a8 24bb cd1d 2a3e d225 6a3e
000000e0: 3005 8e3d dea6 943a d6bd 213e e604 8eba
000000f0: cd35 88be d42a d93d e099 8cbe 73a8 c23d
-0.027554307 -0.0081262635 0.0005806743 -0.03438332 0.22722612 0.00012930144 0.276252 -0.0777299
2.1885538e-05 0.00037121767 0.092027545 -0.23995757 -0.05445552 -0.29176933 -0.29566255 0.23202658
-0.00047181445 0.01364636 0.12754893 -0.28542355 0.08377008 1.24086355e-05 0.21554016 0.16399124
-0.10063948 -0.064925924 -0.07329097 0.21397717 0.0008075995 0.32787928 -0.0853282 -0.3096367
-0.007338944 -0.17276831 0.19398777 0.008748156 0.17006697 0.18206224 -0.22980663 0.086116046
-0.29937792 0.087663054 -0.27769327 -0.039738767 0.24172847 -0.17459415 0.11366526 0.32465297
0.0064044283 0.014244182 -0.29451248 0.28660065 -0.033906493 -0.0025124813 0.1661293 0.2286599
0.06934583 0.0011341234 0.15795073 -0.00108352 -0.26603547 0.10603872 -0.27461147 0.095047854

vitals_proj.1.weight f4 [64]
00000000: 7d1e 773f 341b 773f d8da 793f eda3 7b3f
00000010: 1af2 753f c492 793f a14c 773f 926c 7c3f
00000020: 6a20 743f 5b0e 753f 87b6 763f 0652 733f
00000030: 47b1 743f cbc7 783f 358e 793f 4779 763f
00000040: 7c0c 773f 3c1b 7f3f 9ed6 783f 3a53 753f
00000050: 78f2 773f 970d 783f 0085 7b3f a2c6 753f
00000060: 8d5d 773f 7896 743f d47c 7e3f 1c27 793f
00000070: 7735 743f 897a 743f 3814 783f 6cdf 763f
00000080: 43db 773f 79ee 7a3f 183f 783f fe40 773f
00000090: d72d 7b3f 41b1 773f 068b 733f 9fd2 753f
000000a0: 72c0 793f 3e9f 743f dbf9 713f 9557 743f
000000b0: 5791 763f 456c 783f 839d 743f 2b7c 783f
000000c0: a567 773f b3e2 773f cdb7 773f f2cc 7a3f
000000d0: 18e2 773f 3adf 773f 411c 793f 5d07 7b3f
000000e0: 959c 773f 1808 733f 56ae 7a3f c4c3 793f
000000f0: 8b92 773f 77ac 753f d473 783f 5281 763f
0.96530896 0.96525884 0.97599554 0.98297006 0.9607254 0.9748957 0.966013 0.98603165
0.9536196 0.9572503 0.96372265 0.9504703 0.95583004 0.9717986 0.97482616 0.96278805
0.96503425 0.9965093 0.9720248 0.9583012 0.9685435 0.96895736 0.98249817 0.96006215
0.9662712 0.955421 0.9940922 0.973253 0.9539408 0.95499474 0.9690585 0.96434665
0.9681894 0.9802013 0.96971273 0.96583545 0.9811682 0.96754843 0.9513401 0.9602451
0.97559273 0.95555484 0.94521874 0.9544614 0.9631552 0.97040206 0.95552844 0.97064465
0.96642524 0.9683029 0.9676483 0.9796897 0.96829367 0.9682499 0.9730874 0.9805811
0.967233 0.94934225 0.97922266 0.9756434 0.9670798 0.95966285 0.9705174 0.9629108

vitals_proj.1.bias f4 [64]
00000000: c05e 86bc 5830 68b9 5247 9e3c 5e3d debb
00000010: 2a40 80bc 66bc 543c d178 f53c 6e0e 7e3c
00000020: 30a6 41bc 707a d53a 3835 05bc d623 193a
00000030: 48e1 ffbb ce07 d3bb fe9c 16bb 74ef 0cbc
00000040: 411e 85bc 1ff3 ed3a 99f2 8a3c 103a 01bc
00000050: e54c d83c 7e48 063d aec0 b5ba a887 9cbb
00000060: d3c8 08bb c2d6 4a3c d94a cf3c 61b2 bbba
00000070: 865b f1bb a693 a0bb 8a82 32bc 0a9a 88bb
00000080: fc97 a1bc 9c50 66bc f67b b93c b0a3 36bc
00000090: 0daf a13c 43ac 82bb dd8d d3bb 2a1b 303c
000000a0: 9681 c93c 9837 dc3c 42ca 963c 8984 8abc
000000b0: 9bea bb3b cee4 483b a46e 40bc 0e44 723c
000000c0: e00f 14bc d530 a6bb 73b9 573c 6cc3 1b3b
000000d0: 4da8 123c b757 c03c a27b 20bb 2c3e f73b
000000e0: a36a d73c 22ce 8fbc 2bd4 64bc 67e4 d43c
000000f0: de89 6d3c 2c78 5abc d725 ad3c fd67 b0bb
-0.016402602 -0.00022143254 0.019321118 -0.006782218 -0.015655596 0.012984371 0.029964836 0.01550637
-0.011819407 0.00162871 -0.008130364 0.0005841827 -0.007808838 -0.0064401394 -0.0022981758 -0.008602012
-0.016249778 0.0018154121 0.016961383 -0.007887378 0.026403854 0.032783978 -0.0013866627 -0.0047769137
-0.0020871654 0.012380304 0.025304245 -0.0014320129 -0.007365647 -0.0049004136 -0.010895381 -0.0041687535
-0.019725792 -0.014057305 0.022642117 -0.011147425 0.019736791 -0.0039878204 -0.0064561204 0.010748664
0.024597924 0.026881978 0.01840699 -0.0169089 0.0057347543 0.0030653956 -0.011745129 0.014786733
-0.009036988 -0.005071739 0.013166773 0.0023767604 0.008951259 0.023479326 -0.0024487753 0.0075452533
0.026295966 -0.017554346 -0.0139666 0.025987817 0.014498202 -0.013334315 0.021136208 -0.00538349

vitals_proj.1.running_mean f4 [64]
00000000: 761e 9dbc 4391 3dbc 29a4 4f3a 5bf9 10bd
00000010: 65ce 683e 477c 28bc cbf6 913e 2cd1 b0bd
00000020: 6f98 533c a90b cbbb bb73 da3d 33fc 84be
00000030: 9e76 4cbd 6d73 9cbe da7d 94be 9fdb 7c3e
00000040: 5894 87bb b35f fe3c 0a2b 073e 177b 96be
00000050: 8c6a b93d 5c6f 113c 7321 5e3e 0571 3b3e
00000060: c0c0 e6bd 3c12 acbd aa0c 94bd 7a50 733e
00000070: 52d1 65bc ba57 a93e 1cf7 d0bd 714a a2be
00000080: 6fb2 9ebc 3c20 47be 5d8f 513e e11d cb3c
00000090: ccda 263e bcd8 4e3e 751b 7ebe 24cf c83d
000000a0: d7f0 99be 560d c23d c680 99be eb8d 53bd
000000b0: 0769 783e 71fc 37be 504d 043e 2892 a83e
000000c0: bc7d 293c 34c9 f33c fa5e 99be 27b0 963e
000000d0: 1811 27bd c22d 88bc 7f52 343e 6ec0 663e
000000e0: 64e5 b83d ffd0 babb 7970 243e 2405 2d3c
000000f0: f432 8ebe e11a f63d b920 96be 90ca b43d
-0.019179564 -0.011570278 0.0007920885 -0.035394054 0.22734983 -0.010283536 0.285086 -0.08633646
0.012914761 -0.0061964584 0.10666605 -0.25973663 -0.04991781 -0.30556813 -0.29002267 0.24693154
-0.004137557 0.031051492 0.13200012 -0.29390785 0.09053525 0.008876648 0.21692447 0.18304832
-0.11267233 -0.084019154 -0.07228978 0.23761168 -0.014026957 0.33074743 -0.102033824 -0.3169742
-0.019372193 -0.1944589 0.20464845 0.02479452 0.16294402 0.20199865 -0.24815162 0.09805134
-0.3006656 0.094752 -0.2998106 -0.051649015 0.24258815 -0.17967393 0.12920117 0.32924008
0.010344919 0.029759027 -0.29955274 0.2943127 -0.040787786 -0.016623382 0.17609595 0.22534344
0.09028128 -0.005701184 0.1605853 0.010560308 -0.2777325 0.120168455 -0.2932184 0.08827698

vitals_proj.1.running_var f4 [64]
00000000: d6ca 9f3e f7f8 3d3e 9f16 323e f879 673e
00000010: eac8 0a3e 1089 063e f933 4b3e fa72 2d3d
00000020: 1d5d 933e 58f1 5e3e 6410 f83d 2393 523e
00000030: d1b1 9d3e 7361 153e 48a5 2f3e 6719 263d
00000040: 76d3 893e 630b 1b3f a066 733d a22a df3c
00000050: 280a 553d a2fb 163e f6ff 793e 4ff9 403e
00000060: f668 573e a8e0 ec3e c587 ee3d 006e 953e
00000070: da97 ab3e f8a6 8a3e 5f4a b03e a321 1e3e
00000080: bb9b ef3e 71e0 903e 0e5c a43e a002 923e
00000090: 657a c83e 2f12 c03d 3dab 463e ab12 273e
000000a0: bc9c da3d 630f e43d 2a23 863e 3eb1 363e
000000b0: a255 4e3e c8ea 933e 2d3c 913e 03c0 bd3e
000000c0: a93a 3a3e 0d87 ac3d f023 193e 0b19 d13d
000000d0: 4238 bf3d d93b 153e e572 a13d 7b69 973e
000000e0: 44a5 703e 2cc9 873e cdaf 743e 56ff d53d
000000f0: 2888 4d3e 3dd5 a23e 6467 4c3e d5d2 0f3e
0.3120944 0.18552004 0.17391442 0.22605121 0.13553205 0.13138223 0.19844045 0.04234598
0.28781977 0.21771753 0.12112501 0.2056394 0.30799726 0.14587955 0.17152894 0.04055157
0.26919144 0.6056425 0.059424043 0.027242009 0.05201164 0.14744428 0.24414048 0.18845104
0.21036133 0.4626515 0.1164699 0.29185486 0.3351429 0.27080512 0.3443174 0.15442519
0.467985 0.28296235 0.32101482 0.28517628 0.3915588 0.09378468 0.1940126 0.16315715
0.10674426 0.11135747 0.26198703 0.1784105 0.20149854 0.2889006 0.28366223 0.37060556
0.1818644 0.084241964 0.14955115 0.10209855 0.09336902 0.14573611 0.078832425 0.29572663
0.23500544 0.2652067 0.23895188 0.10449092 0.2007147 0.31803313 0.19961315 0.1404527

lab_proj.0.weight f4 [64, 5]
00000000: d089 753e 8bb9 ecbb 71bb 7f3c 77f3 bebd
00000010: 22fe 8abe 16b0 30be acfc 3fbe eb30 5a3d
00000020: b601 673e 0e57 46bd ed58 81be 3017 a5be
00000030: 26e3 afbe 59b4 93be 662a babe 4864 c43e
00000040: f2a9 cebd e801 8c3d 6f64 b6be 167a 9cbe
00000050: 5f14 9ebe 275e 9fbe c331 45bd 2032 a63e
00000060: 0b93 a33e 6dbb b83d 4912 a6be d777 9fbe
00000070: ac20 2f3e 2ef4 8c3e 4328 e63d 5611 54be
00000080: a724 903d cf80 bc3e 83d5 953c 453a 893d
00000090: 3d4f a53d 7cea 34be ac92 41be 1662 ca3c
000000a0: 0155 18be d3f1 833e 02be a73e 0161 d03d
000000b0: 4675 b3be d3c5 3a3e fe2b c6be c7c2 f93b
000000c0: 8277 d43e 61f6 c03e d8d6 68be a5ee c73e
000000d0: 2e49 59be 07ac 473e 4e2b 963e e602 b13e
000000e0: 9f43 033d 2b5d 4a3a d01d 213e 4d3f a8bb
000000f0: 6bcb 313e 90e3 74be 6193 38be a21c a03e
00000100: a68a a53e a995 af3e 1067 8b3e 1b5d 34bb
00000110: 1794 78bd 808c 9a3d c542 c3bd 9d0b d63e
00000120: 2b8a 6abe 6323 203e 173d a23e ed60 9cbe
00000130: c0c7 cfbc ab36 abbe cf5c d63e dbae 09bc
00000140: ad19 b13d 75d2 ba3e 3493 d9bb b1d4 bc3e
00000150: 91b6 bcbe 145d fa3d d7c9 d63d 899f 073e
00000160: cfc3 1fbe da6e 983e a5af 9f3e 023c 1abe
00000170: e1e2 8e3e 9b3b b3be a5df ff3d f76e 2b3d
00000180: ed20 2d3d bdbe d33d 8d12 7a3c 1acb 98bd
00000190: 8dce 83be a8a1 ea3d c8a7 943d ebb2 893e
000001a0: 1f71 c4b6 1462 38be 9b9a 82bd 8fb1 d93e
000001b0: 8f41 9fbc c384 ca3d 89af 0f3c 647a d4be
000001c0: 639b 023e bd23 a53e 43f3 ba3e 76c2 d0be
000001d0: 0956 82be f1be 79be cc4c debd 2aa0 9bbe
000001e0: bceb 9e3e cad2 21be fb3a c4be 82f2 883e
000001f0: 1a66 15be 6f96 abbd 458c ab3e b598 c8be
00000200: 0850 8e3d 9b1d b6be cc69 083e 6ea1 eabd
00000210: 9d8f 92be 4913 4b3e a5b4 c13d d81a be3e
00000220: 1b7b bf3e e466 1f3e f807 a0be 1ccf 553d
00000230: 1c78 b7be 1298 f23d a899 e9bd 092f 963d
00000240: 5da0 73be 2595 37bd c38c 12be 49a2 54be
00000250: 284f 3d3b 24bc 893e fed6 11be d005 43be
00000260: 7ef1 a0be e991 94be 2a60 403e a586 aa3d
00000270: 0ec9 da3c 7cf1 16be 1ee8 77be d0eb febd
00000280: 2291 93be 34da babe f2d5 8dbd 48cc 233e
00000290: a311 26b8 8e66 6a3c ceaf 53be 0c4f 7f3e
000002a0: c200 cb3e f3ea 83be 46c9 903d 0ab5 c3be
000002b0: 14dd be3e 49f0 743e 6030 b43e 7bdf 9ebe
000002c0: 3d03 2fbe 70e5 723d 8699 b63d 0de8 633e
000002d0: 7dfb 843d 1a12 ccbe 51b8 a4be b88e 91be
000002e0: 120f aa39 a231 e9bd 71b8 53be da53 bfbc
000002f0: 1fe6 a93e eeab 5dbe 0baa 863e 5c76 3abd
00000300: 32f4 4d3e 74b7 86be 7982 c4b9 d430 4ebe
00000310: 3a6b d43c d855 00be 0522 85be 4de3 59be
00000320: b783 3d3e d273 a63e c092 8038 4e32 413e
00000330: 57cc 943d 5ca7 8bbe 1a75 593e cd20 8ebe
00000340: 7845 d43d d131 6dbe 8f8e 1bbe 3403 703e
00000350: be42 973e eea5 96be f21c acbe d5cd 9a3e
00000360: 35b8 963d ce5a 05be 3383 bf3d e565 2bbe
00000370: 1e40 8abe 1fd8 09be 52fc 94be d1dd 89be
00000380: be0f d5bd 5634 b73e c319 a5be a591 933e
00000390: 7369 2a3e 123e 993a d05d d13a 0d3e cd3d
000003a0: fd52 4fbe 8ec5 34bc 9761 a63b c579 e93c
000003b0: 6abd 97bd f648 46be 58ba 613d ae16 3fbd
000003c0: 0725 843e bb96 07be 0f01 063e 5e99 82be
000003d0: db13 b938 f02d 69bd a4ec 98be 8198 693e
000003e0: 902d abbe d742 6938 bf87 183d b268 8fbd
000003f0: 3e83 a03d 43e0 4e3e 40fc be3e f707 213d
0.23978353 -0.007224267 0.015608654 -0.09323781 -0.27147013 -0.17254671 -0.1874873 0.053269308
0.22559246 -0.048422866 -0.25263157 -0.32244253 -0.34352988 -0.28848532 -0.36360472 0.3835776
-0.10091008 0.06836301 -0.356235 -0.30561894 -0.30874917 -0.3112652 -0.04814316 0.32460117
0.31948122 0.09020124 -0.32435825 -0.31146118 0.17102307 0.27530044 0.11238148 -0.20709738
0.07038241 0.36817023 0.018290287 0.06700567 0.08071754 -0.17667574 -0.18903607 0.024704974
-0.14876176 0.25770435 0.32762152 0.10174752 -0.3505041 0.18239526 -0.38705438 0.007622096
0.41497427 0.37687972 -0.22738206 0.3904926 -0.21219322 0.19499217 0.29329914 0.34572524
0.03204691 0.00077195716 0.15734029 -0.005134499 0.17362754 -0.23914933 -0.1802497 0.31271845
0.32332343 0.3429387 0.27227068 -0.0027521315 -0.060688104 0.075463295 -0.0953422 0.41805735
-0.2290427 0.15638499 0.31687233 -0.30542699 -0.025363803 -0.33440146 0.41867682 -0.008403505
0.086474754 0.3648869 -0.0066398624 0.3688102 -0.36858037 0.122247845 0.10487717 0.13244452
-0.15602039 0.29772073 0.31188694 -0.15061954 0.2790747 -0.35006413 0.12493829 0.04185387
0.04226773 0.10339115 0.015263212 -0.074606135 -0.25743523 0.11456615 0.07258564 0.26894316
-5.854424e-06 -0.18006164 -0.06377145 0.4251828 -0.01944044 0.098886035 0.008769878 -0.41499627
0.12754588 0.3225383 0.3651372 -0.40773362 -0.25456265 -0.24389245 -0.108544916 -0.30395633
0.31039226 -0.15803066 -0.3832625 0.2674752 -0.1458973 -0.08378302 0.33505455 -0.39179006
0.069488585 -0.35569462 0.13321608 -0.114565715 -0.28625193 0.19831575 0.09458283 0.37129855
0.3739861 0.15566593 -0.3125608 0.052199468 -0.35833824 0.11845411 -0.11406261 0.0733319
-0.23791642 -0.04481997 -0.14311509 -0.20765032 0.0028886292 0.26901352 -0.1424217 -0.19045186
-0.31434244 -0.2901757 0.18786684 0.08326463 0.026707198 -0.14740556 -0.2420964 -0.124473214
-0.28821665 -0.364946 -0.069255725 0.15995896 -3.959391e-05 0.0143066775 -0.20672533 0.24932498
0.39649016 -0.2576519 0.0706964 -0.3822406 0.37278044 0.23919787 0.35193157 -0.31029877
-0.17091079 0.05930084 0.08916001 0.22256489 0.0649328 -0.3985756 -0.32171872 -0.28429198
0.00032436155 -0.1138642 -0.20675828 -0.023355413 0.3318338 -0.21647617 0.26301607 -0.045523033
0.20112684 -0.2631184 -0.00037481243 -0.20135814 0.025930036 -0.12532747 -0.26002517 -0.21278115
0.18507276 0.3251024 6.13085e-05 0.18866846 0.07265537 -0.27276123 0.21236077 -0.277594
0.103648126 -0.23163535 -0.151911 0.23438722 0.29543108 -0.2942347 -0.33615834 0.30235162
0.073593535 -0.1302292 0.09351196 -0.16738088 -0.27002043 -0.1346135 -0.29098755 -0.26927045
-0.10403393 0.35782117 -0.32246217 0.28822055 0.16641788 0.0011691472 0.0015973393 0.10021601
-0.20246501 -0.011033429 0.0050775516 0.028500447 -0.07409175 -0.1936377 0.055109352 -0.04665249
0.258095 -0.13241093 0.13086341 -0.25507635 8.825186e-05 -0.056928575 -0.29868042 0.22812082
-0.334332 5.561378e-05 0.037238833 -0.07002391 0.078375325 0.20202737 0.37301826 0.039314236

lab_proj.0.bias f4 [64]
00000000: 668b f9b8 f2ef e93d fb30 073e e31b aa3e
00000010: f48d 85be 5e0e 0ebc f830 b7b9 8fbf 8c3e
00000020: 2479 5bbe 14aa 373e 8d9e 993e ca7b 2b3e
00000030: 4c03 70bd 05b4 3a3e 4c40 6cbe f349 c1b9
00000040: 60db 7bbd 193e 3a3e bf85 a73e 4c8d 473d
00000050: c186 96be e2a0 753e 9c75 3e3e 2c56 9f38
00000060: 62ad 693e 23e0 01bb 342a 0ebd a06f bbbe
00000070: 69fe 13be 8907 0e3e 0b55 c63c 3501 b7be
00000080: 3f73 99bd 276a a83e 8b33 1bbd aeab babe
00000090: 4b5d 81be d7de 37bd 39be 21bc 1b14 afbe
000000a0: 29d4 bc3e b10d 433e 062d 093d 7d62 103d
000000b0: d537 3c3e 88e0 413e 0c6e 923e b91d b5be
000000c0: cc52 6fbc c5d6 aa3d 7617 803e da2b 86b9
000000d0: 8526 043e ab3e e33d 491d 823e 1b77 8cbe
000000e0: 36b0 16be b573 b0be 1f7c 80bd f2f3 a0be
000000f0: 68b0 b9bb 3f9e a7bc d3c9 d33c 09ad 83bd
-0.0001189921 0.11422719 0.13202278 0.332244 -0.26084864 -0.008670418 -0.00034940965 0.27489898
-0.2143293 0.17935973 0.30003777 0.1674644 -0.058596894 0.18232735 -0.23071402 -0.00036866925
-0.06148851 0.18187751 0.32719228 0.048718736 -0.29399684 0.23987153 0.18599552 7.5977616e-05
0.22820047 -0.0019817434 -0.034708217 -0.366086 -0.14452519 0.13870062 0.024210474 -0.35743108
-0.074926846 0.32893488 -0.037890952 -0.36459106 -0.2526649 -0.04489025 -0.009872013 -0.34195027
0.36880615 0.19048192 0.033490203 0.035250176 0.18380673 0.18933308 0.28599584 -0.3537424
-0.014607143 0.08341745 0.250179 -0.00025591144 0.12905319 0.11095937 0.25412968 -0.2743462
-0.14715657 -0.34463277 -0.06273674 -0.31436116 -0.005666781 -0.0204612 0.025853073 -0.06429488

lab_proj.1.weight f4 [64]
00000000: f766 713f 7ce5 703f ab90 763f 11fd 733f
00000010: 38ed 713f 7aa1 753f 0ece 733f b4a9 743f
00000020: 1220 703f b4c4 743f 70f3 703f 086a 723f
00000030: 4f9e 733f 8f00 713f 6c55 703f 816a 703f
00000040: 70fc 723f f26c 703f 3e89 733f b9f2 703f
00000050: 9323 753f d457 733f 03ed 753f dbe1 743f
00000060: 5b1e 723f 647b 723f cb08 703f 3840 773f
00000070: edb5 743f 3585 723f 0a78 713f af25 743f
00000080: 2f6c 783f 6e41 733f c587 723f 7a53 713f
00000090: 5b20 7d3f f20b 723f c780 733f 2864 763f
000000a0: 78f5 733f dec7 783f 8268 713f 7b89 733f
000000b0: 6b00 753f 23a6 763f 4f69 743f 96b5 733f
000000c0: 4770 713f 68c7 723f 83f4 6f3f f0e1 713f
000000d0: 5661 6f3f e3dc 713f 7cd9 6f3f 1000 723f
000000e0: 010f 763f 38ad 733f 3e80 743f d270 713f
000000f0: 7567 743f 7a3a 713f dc2d 733f c79f 733f
0.94297737 0.94100165 0.96314496 0.95308024 0.9450259 0.9594952 0.9523629 0.95571446
0.93798935 0.95612645 0.94121456 0.9469304 0.95163435 0.9414148 0.93880343 0.9391251
0.9491644 0.9391624 0.9513129 0.94120365 0.95757407 0.9505589 0.96064776 0.9565713
0.9457757 0.9471953 0.93763417 0.96582365 0.95590097 0.9473451 0.9432379 0.9537
0.97040075 0.9502171 0.9473842 0.94268 0.98877496 0.9454948 0.95118374 0.96246576
0.9529643 0.97179973 0.9430009 0.95131654 0.9570376 0.96347255 0.9547319 0.95198953
0.94311947 0.9483552 0.9373247 0.9448538 0.935079 0.9447767 0.9369123 0.94531345
0.96116644 0.95186186 0.9550818 0.94312775 0.9547036 0.94229853 0.9499185 0.95165676

lab_proj.1.bias f4 [64]
00000000: 7a75 01bc 7f2f 31bb 805f 8f3c 23d2 24bc
00000010: f30d 99bb ea1b e53a fc03 f33c c817 8d3c
00000020: 81d6 35bc ffb1 df3c 3afe 1abc 1072 9bbb
00000030: 6244 28bc ec64 943b 6e87 b23b c01d 0b3c
00000040: 8ddd 2bbc 5886 163b 744e c23c eaba b5bb
00000050: 2582 f03c a8f5 0b3d d21a 76bb aff6 e03b
00000060: 404b 25bc bfe9 543c 3802 fe3c e4f6 4f3a
00000070: cc99 21bb d746 1bbc cfca 1abc fa29 0fbb
00000080: a92c 19bc 9705 59bc a21d e33c 82ac 4fbc
00000090: ab4f e03c dfd9 bdba ab75 09bc 3266 a23a
000000a0: 648e 033d b003 e63c 3c10 e73c 441d 7fbc
000000b0: 0543 23bc 8cfb e9bb db36 72bc 91a0 073c
000000c0: ceed 34bc 9324 72bc cfea bf3b e1c9 263b
000000d0: 85b3 ea3b 6a69 d73c 9945 bebb 0383 673c
000000e0: 8219 fd3b 0566 5ebc 42a5 85bc 9e04 ab3b
000000f0: 6869 393c 90b0 73bc 40dc 643c 9ab6 80ba
-0.007901544 -0.0027036367 0.017501593 -0.010059866 -0.0046708523 0.0017479633 0.029664986 0.017223254
-0.011098505 0.027306555 -0.009460026 -0.004743822 -0.01027021 0.0045286324 0.0054482734 0.00849098
-0.010489834 0.0022968259 0.02371905 -0.0055459635 0.029358933 0.034169823 -0.0037552607 0.0068653445
-0.010088742 0.012995183 0.031006917 0.0007933213 -0.002465832 -0.009477339 -0.009447767 -0.0021845088
-0.009349027 -0.013245962 0.027724091 -0.012675406 0.027381739 -0.0014484486 -0.008389871 0.0012390076
0.032118216 0.02807793 0.028205983 -0.015570942 -0.009964709 -0.0071405824 -0.014783586 0.008278028
-0.011043025 -0.014779228 0.005856849 0.002544992 0.0071625137 0.026295383 -0.0058066365 0.014130357
0.007723988 -0.013574128 -0.016314153 0.0052190563 0.011316635 -0.014873639 0.013968527 -0.0009820045

lab_proj.1.running_mean f4 [64]
00000000: 16da cbba a8c3 f93d 2210 173e 7435 ae3e
00000010: 011e 8abe fc54 74bc 218f 09bc 317d 923e
00000020: 9a8e 65be 425d 3a3e b455 9f3e 286b 2f3e
00000030: c93b 90bd 7811 413e a92c 74be 6c10 473b
00000040: 942f 96bd c4e7 423e e85a ab3e 4653 623d
00000050: e53e 9bbe 1991 7e3e 3932 433e df0d d83b
00000060: 06f0 6e3e 6b81 37bb aee0 32bd acc7 c0be
00000070: ef0d 19be 0d66 183e 8b8c 153d e784 babe
00000080: 1a51 a7bd 6745 aa3e d11c 4fbd 275e bebe
00000090: dc54 84be 41f0 5ebd 2307 87bc 1312 b1be
000000a0: 1bc5 bf3e 53dc 4f3e 16ad 323d 308d 203d
000000b0: 433d 4c3e 56aa 433e 47b4 973e 52be b9be
000000c0: da65 b0bc d141 c03d 5743 833e 265c 8b3a
000000d0: e745 0d3e 8b40 f43d 00ee 833e a80a 90be
000000e0: d110 1abe e1de b3be cb45 8abd 321e a8be
000000f0: 14eb fdbb 6d72 cbbc 4af1 1a3d 204f 83bd
-0.0015552666 0.121955216 0.14752248 0.34025156 -0.26976016 -0.01491284 -0.008395941 0.28611138
-0.2241768 0.18199638 0.31120074 0.1713072 -0.07042653 0.1885432 -0.23845161 0.0030374778
-0.073332936 0.19033724 0.33467793 0.055255197 -0.30321422 0.24860038 0.19062127 0.0065934504
0.23333749 -0.0028000723 -0.043671302 -0.37652338 -0.14946721 0.1488268 0.036510985 -0.3642952
-0.08169766 0.33256075 -0.05056459 -0.37181208 -0.25845993 -0.054428343 -0.016482895 -0.34584102
0.37455067 0.20298891 0.0436221 0.039197147 0.19945244 0.19107947 0.29629728 -0.36278015
-0.021532942 0.093875535 0.25637314 0.0010632321 0.13796197 0.11926373 0.25767517 -0.2813313
-0.15045477 -0.3513098 -0.06751593 -0.32835537 -0.0077489708 -0.024834836 0.037827767 -0.06411576

lab_proj.1.running_var f4 [64]
00000000: 9771 1d3d f78d 173e 05bf b13e c394 333e
00000010: f41d b93e 9326 153e 5504 893e 75e2 973d
00000020: 1486 863d 7b72 e03e 2f0d e03d f7c8 f43d
00000030: e718 4f3e 3921 4e3e 284c fd3d 643a 793e
00000040: 66d8 823e b55b 7b3d ddf1 123e dd5f 093c
00000050: a690 bf3d a4bb b93c 3012 be3e 7b39 913e
00000060: dc24 0e3e b120 b33d 27f7 843d 310e ef3e
00000070: 395e 893d 5f71 0e3d 2e07 5d3e 062b c03d
00000080: 5a0f 943e 2394 a83e de50 973e c4fa fa3d
00000090: e52e 633e 2696 693e 9a2c cb3d 1122 163e
000000a0: c9c6 353e f136 743d 4d2a 333e b14a 933d
000000b0: c1b2 753e efcd 683e 2f03 6c3c b5c9 343c
000000c0: 989b a43d 7491 223e 3157 9f3d a62f d03d
000000d0: 6c19 bd3c 4ca3 1c3e 74a1 ad3e 5b31 bd3d
000000e0: 873e 393e c9da 843e 4f2a a03e 65e6 e73d
000000f0: cb49 573e cf3a 023e c523 9e3e 7225 9c3e
0.038438406 0.14800249 0.3471605 0.17537217 0.36155665 0.14565496 0.26761118 0.0741624
0.06568542 0.43837342 0.109400146 0.119523935 0.20224343 0.20129861 0.12368041 0.2433868
0.25555724 0.061366756 0.14350076 0.008384672 0.093537614 0.022672482 0.3712325 0.28364167
0.13881248 0.0874647 0.06492453 0.46690515 0.06707425 0.034776088 0.2158477 0.09383206
0.28917962 0.3292552 0.29553884 0.12254861 0.22185858 0.22811183 0.099206164 0.14661433
0.17751612 0.05962271 0.17496605 0.07191981 0.2399397 0.22734807 0.014405056 0.011034419
0.0803749 0.15875798 0.07780302 0.10165338 0.023083411 0.15296668 0.3391224 0.092379294
0.18090259 0.2594817 0.3128228 0.11323241 0.21024244 0.12717746 0.30886665 0.30497319

drug_proj.0.weight f4 [64, 9]
00000000: 0973 b73d 5b46 913e 4f9c 86be c6df 86be
00000010: 6e3c 99be 57ee 9d3d 0781 96bd 1657 99bd
00000020: f759 a23e b874 96be 2580 883e 4399 aabe
00000030: df29 a0be 386a 83bc 2827 693e 299b fa3d
00000040: 31c5 f2bc 31d0 2dbd e033 853e 3501 d13d
00000050: 17a2 2cbe b1a7 37be 0923 613e b1cd 39bd
00000060: 6a06 8e3c ca8c 70be a258 64be da43 883d
00000070: 1680 17be d65f 7c3e 0ddb 5a3e 8337 7fbe
00000080: d993 01bc 170b 22be 6db6 4f3e 59f0 d63c
00000090: 9ef8 56be 4f69 cd3d 18f0 243e 5f76 28be
000000a0: 9b8b 0d3e 661e da3d 12d8 13bd 5a08 a2bb
000000b0: 5e86 58be d770 103e 32dd 7fbe 9c19 223d
000000c0: e7f1 f53d 6c3d 5e3e 9dac a3bd b1e1 3f3c
000000d0: e940 78be 41d0 1bbe b651 ffbd dd19 2a3e
000000e0: 71bf f23b f875 9b3e 4fc0 e2bd 331a ee3c
000000f0: 2b62 843e 4d81 9bbe c8ed 343e 3c0b 63bc
00000100: 25f0 35bb 54dc 8e3e ddfb f73d b0a9 71bd
00000110: bae0 473e 1a08 3f3e 5ba9 913d 0155 1fbe
00000120: 1b38 92bd ac3c 17be bd8e 4ebb 449e 14be
00000130: ca8e 48be 19d4 95bd e36a 8d3d 3778 f33d
00000140: 2794 63be 8e43 733c b065 91bd cdc5 2e3d
00000150: 0201 2e3e f718 88be 1256 043e 0383 a43d
00000160: b052 cabd 03d4 30be 42fa 873e aa8e 6e3e
00000170: f4c7 833d f5a1 a93e c6f3 b83d 381c 613c
00000180: 3497 6fbd 3a64 1e3e 35cd 34bd 7dd0 ebbc
00000190: 09a5 4abe 9b0f 843e a777 ab3e 645c 5b3e
000001a0: ff44 833e 3b33 293e 2b2b e8bd 6335 33bd
000001b0: 05b0 753e 76e0 b6bd ac1d 543e d540 ae3b
000001c0: 88bf 323e 43ee b1bb 3ac2 91bd 7e43 bcbd
000001d0: 2b65 f5bc 2f5a 72bd 1897 823e 1080 7e3e
000001e0: b964 1ebe bf4d 48be 21f6 273e 1f90 383e
000001f0: 86bb 9c3e b4c7 183e e330 5f3e 32d7 1fbd
00000200: 4957 d63d 26b9 2a3d 778a 143e 8520 1dbe
00000210: 3061 4cbd ba41 07be 6eb2 c43a f928 9fbe
00000220: 2096 06bd 9e38 403e a4fa 513e 6ff6 e03d
00000230: 4e40 6a3d f28e 53be ed91 34bb 5451 b9bc
00000240: 09bd 0ebe 8a91 453e 6e91 52bd d123 9dbe
00000250: b964 1c3e 378f f2bd 8827 80be 1b94 2cbe
00000260: be1e a9be 7bce 1fbe 276d 063e 4f40 73bc
00000270: e280 de3c 6afb 463d ae45 65bd 6455 87bd
00000280: 8fa2 3ebe 18e8 dabd de18 753e ac19 753d
00000290: cf02 e33d 72a0 9cbc 5e19 043e 9536 553e
000002a0: b63d efba 90db bfbd fcb9 5b3e e3da 4abe
000002b0: b033 6bbe 9996 94be 8610 1a3e 7b07 123e
000002c0: 46f3 933e 0acf 32be 98c2 82be d279 64bd
000002d0: 3e77 563e 340d 66be 36d8 d6bd b52f a13d
000002e0: 311c a4be 59b0 973e 2385 8abe 86fd 4bbe
000002f0: bd51 993e c4d4 843e 9c85 2f3e 995c 3f3e
00000300: 8912 62bd 7694 9d3e 6b5b 3a3d 91a1 b63d
00000310: fd9b 9c3e 0802 97be 5292 6b3e 72ce aa3e
00000320: aac9 8abd 59b8 a5be 9db6 90bd 08ce 8abe
00000330: b823 94be 35c4 903e a3b1 863e 14a9 203e
00000340: 75b6 11be 3022 7dbe 851a 8b3e 116f 65be
00000350: 87b5 9fbe 79ab 61be 9eb2 7dbe 9108 7d3e
00000360: 6770 483e b1ef 913e 28e9 9ebe cdb0 68be
00000370: 764c 34be 41a4 833e b47d 6b3e 1c0b 993e
00000380: 75b4 563e 5e19 333e d175 44bd 0b5a f33c
00000390: 21e4 7c3e 6adc 1cbe b4b0 98bd d210 29bc
000003a0: 9d62 803d e0d4 853e b2eb 41bd 43ef 71bc
000003b0: cf17 21be 555a 353e c584 df3c 5cb6 2e3e
000003c0: d3cd d2bd 05b1 79bd 1ff5 e0bb 2736 8dbe
000003d0: d13d f3bd 5d50 9f3e 92b4 8dbe 1ef0 01be
000003e0: 1b4f 81be 6509 733e 2b39 4b3e 6117 e1bb
000003f0: 787b 023d d01e 603e e2f8 913e f71b 45be
0.08957488 0.2837399 -0.2629113 -0.263426 -0.29928917 0.07711475 -0.07348829 -0.074873134
0.31709263 -0.29385924 0.26660267 -0.33320054 -0.31281945 -0.01604186 0.22768843 0.12236626
-0.029635044 -0.042434875 0.2601614 0.10205308 -0.16858707 -0.17935063 0.21986021 -0.04536218
0.017337043 -0.23491207 -0.22299436 0.06653567 -0.14794955 0.24645934 0.21372624 -0.2492352
-0.007908785 -0.15824543 0.20284434 0.026237654 -0.20993277 0.10029852 0.16107213 -0.16451405
0.13822787 0.10650329 -0.036094733 -0.0049448432 -0.21145007 0.14105545 -0.24986723 0.039575204
0.1200903 0.21703118 -0.07991908 0.011711524 -0.24243511 -0.15216161 -0.12466757 0.16611429
0.0074080755 0.3036344 -0.11071836 0.029065227 0.25856146 -0.30372086 0.17668831 -0.013857659
-0.0027761545 0.27902472 0.12108586 -0.058999717 0.1951932 0.18655434 0.0711238 -0.1555977
-0.071396075 -0.14769238 -0.0031518184 -0.14513499 -0.1958572 -0.07315845 0.06905153 0.118881635
-0.22224484 0.014847649 -0.070994735 0.042669106 0.16992572 -0.26581547 0.12923458 0.08032801
-0.09879053 -0.17268376 0.2655812 0.2329661 0.064346224 0.33131376 0.09030871 0.013739638
-0.058493808 0.15467921 -0.044141013 -0.028785938 -0.19789518 0.25793156 0.33489725 0.21421963
0.25638577 0.16523449 -0.11336359 -0.043752085 0.23992927 -0.08929531 0.20714444 0.005317787
0.17455876 -0.0054300143 -0.07117124 -0.091925606 -0.029955467 -0.059168037 0.255059 0.2485354
-0.1546811 -0.19560908 0.16402484 0.18023728 0.3061182 0.1491993 0.21795993 -0.039023586
0.10465867 0.041680478 0.14505945 -0.15344436 -0.049897373 -0.13208666 0.001500679 -0.31085947
-0.032858014 0.18771598 0.20505768 0.109845035 0.057190232 -0.20659998 -0.00275528 -0.022621788
-0.13939299 0.192938 -0.051408224 -0.30691388 0.15272798 -0.11843722 -0.2503016 -0.16853373
-0.33031267 -0.1560611 0.13127576 -0.014846875 0.027161065 0.04857961 -0.055974655 -0.06608084
-0.18616699 -0.106887996 0.23935267 0.059838936 0.1108452 -0.019119475 0.12900302 0.20821603
-0.0018252644 -0.0936805 0.21457666 -0.19810061 -0.22968936 -0.29021147 0.15045366 0.14260666
0.2889654 -0.17461792 -0.25539088 -0.05578024 0.20943925 -0.22465974 -0.10490458 0.078704275
-0.32052758 0.2962673 -0.270547 -0.1992093 0.29945174 0.25943577 0.17140812 0.18687667
-0.055193458 0.3077733 0.04549734 0.08917535 0.3058776 -0.29493737 0.23005036 0.3336063
-0.067767456 -0.3236721 -0.07066081 -0.27110314 -0.289335 0.28274694 0.263074 0.15689498
-0.14229758 -0.24720073 0.2716867 -0.2240565 -0.31193182 -0.22038068 -0.24775168 0.24710299
0.19574128 0.28503183 -0.3103726 -0.22723694 -0.17607293 0.25711253 0.2299717 0.29891288
0.20967276 0.17490146 -0.04796392 0.029706022 0.246964 -0.15318456 -0.074555784 -0.010318952
0.06268809 0.26138973 -0.047343917 -0.014766517 -0.15731739 0.1771024 0.02728499 0.17061752
-0.10293164 -0.060959835 -0.006865158 -0.27580377 -0.11877025 0.31116 -0.27676827 -0.12689254
-0.25255665 0.23734052 0.19846027 -0.006869242 0.03185603 0.21886754 0.28510195 -0.19248949

drug_proj.0.bias f4 [64]
00000000: 0f3a 2ebe f08a 9fbc 0a91 27bd cd2f e53d
00000010: b14b 2ebe 4273 8dbd 8b5c e23c cf04 133a
00000020: 21c5 1039 08ec f3bd 7349 4ebe 39aa 3c38
00000030: 40bc 883e 827e 1ebc 9301 d8b8 7910 493d
00000040: 3fe5 50be f4c5 683e 9aed 833c ce78 8c3a
00000050: 7fde b039 0e63 59b9 6a85 78be ba69 1ebe
00000060: 6e0d fbbc bf7d b93b 781a 773e db4b 45b9
00000070: 031a 9b3d 58e2 f43d a1bc 063c 57a0 c3b9
00000080: ae46 48be 36e1 c43d 050f 9e3d 4a90 cd3c
00000090: 0cf0 45be 206e 53be decf 1e3e a451 6a3e
000000a0: aea2 71be 8172 533e 98c3 45bd 970b cf3d
000000b0: f65c d4bc 9e2b 093a 7f27 1e3e 89a7 003e
000000c0: 58b5 65bd cb63 22be 5ddb 383d 008d 7b3e
000000d0: 4f5f 2c3e 0496 d6bd d19e 8cbd f8e3 463b
000000e0: cf8b cc3d bee7 76b9 4fa7 563e 224c 89be
000000f0: a416 87bd 39da 1b3e 8874 a63b 9abc 803e
-0.17014335 -0.01947543 -0.040909804 0.11190758 -0.17021061 -0.06906749 0.027632019 0.00056083215
0.00013806346 -0.11910254 -0.20145206 4.4981225e-05 0.26706123 -0.0096737165 -0.00010299976 0.049087975
-0.2039995 0.22731763 0.016104508 0.0010717155 0.00033735108 -0.00020731633 -0.24269643 -0.15470019
-0.030646052 0.005660742 0.24131191 -0.00018815642 0.07573321 0.11957234 0.008223684 -0.0003731276
-0.19558212 0.09613268 0.077177085 0.025093216 -0.19329852 -0.20647478 0.15508983 0.22882706
-0.23597214 0.20649149 -0.048282236 0.101096325 -0.025923233 0.0005232635 0.15444754 0.1256391
-0.056081146 -0.1585838 0.045131076 0.24565506 0.16833232 -0.10477832 -0.06866229 0.0030348282
0.09987604 -0.00023546719 0.2096226 -0.26815897 -0.06596115 0.15219964 0.0050798096 0.25143892

drug_proj.1.weight f4 [64]
00000000: 19fe 7d3f f5d3 793f 1529 7a3f 6867 803f
00000010: f124 783f 4344 763f 257f 7a3f ada6 7a3f
00000020: 0911 783f e2fc 7e3f 8d6f 773f 125f 7a3f
00000030: 130c 7d3f 81dc 803f 327b 7d3f 4d16 793f
00000040: 0202 753f 0cd9 7a3f 5cda 813f fdf1 753f
00000050: a868 7d3f e42d 7b3f a747 7d3f 2211 793f
00000060: b49b 743f 854b 7d3f 3bc1 803f ee4c 7d3f
00000070: 6401 753f 8250 7d3f b43d 7d3f 8505 793f
00000080: 69a2 7b3f 8c5f 7f3f d33d 7a3f a224 773f
00000090: 4026 813f c40b 803f 063b 783f 9243 793f
000000a0: cf52 823f 76fd 793f d7e8 7f3f 424a 7f3f
000000b0: 1995 783f 3a1d 7f3f 4ae6 7a3f 8106 763f
000000c0: 9c80 783f f204 7b3f 4564 7a3f bccb 773f
000000d0: 4047 783f a5d8 7b3f 6e6e 7e3f 6566 813f
000000e0: c0f7 803f 259d 7c3f 9bb0 783f 56a1 823f
000000f0: 00fc 7b3f 59dc 7c3f 0f93 783f 46c6 7f3f
0.9921585 0.97589046 0.97718936 1.0031557 0.9693137 0.9619791 0.9785026 0.9791058
0.96900994 0.9960462 0.9665459 0.97801316 0.9884655 1.0067292 0.99016106 0.97299653
0.9570619 0.9798744 1.0144763 0.9607237 0.9898782 0.981169 0.9893746 0.9729177
0.95550084 0.9894336 1.0058969 0.9894551 0.95705247 0.9895097 0.98922276 0.9727405
0.98294693 0.9975517 0.97750586 0.9654027 1.0089798 1.000359 0.9696506 0.9736873
1.0181521 0.97652376 0.9996466 0.99722683 0.97102505 0.9965397 0.98007643 0.96103674
0.9707124 0.9805442 0.9780925 0.9679525 0.9698372 0.9837745 0.9938725 1.0109373
1.0075607 0.98677284 0.9714448 1.0205486 0.98431396 0.98773724 0.97099394 0.99911916

drug_proj.1.bias f4 [64]
00000000: d5fb 82bc 424c 1e3c 0409 ab3c b1df 2e3c
00000010: 575b c9bc 1b8c 733c e7d0 84bc 3ea4 1ebc
00000020: 1d15 78bc ae4d 9ab9 0de2 f7bc eff3 d6ba
00000030: 5222 673b 7231 5c3c 3e18 353c 9c76 93bc
00000040: 180c 22bc 9cdd 11bc dd56 ca3c edd9 47bc
00000050: 48bc bb3c ab9f 43bc 59e2 06bc a8d0 093c
00000060: 57ef e3bc 215e aa3b c37b 203c 0b4d 1c3c
00000070: 629d 07bd f00a 2abc d4bb 213c 96ee bbbc
00000080: 713d 76ba b89f b7bc 538f e03c b6c2 ecbc
00000090: 4fcc 8d3c 15ad 463c 667f d33b b516 843b
000000a0: ab49 ea3c 6942 fa3c 3c76 c83c ba08 343c
000000b0: a483 64bc aad0 c3bb 4fed c4ba 8914 a8bc
000000c0: 9ca8 e43b 9441 5bbc b971 fe3b e733 6b39
000000d0: b113 d2bc f810 33bb df94 1cbb 0994 c63c
000000e0: 4b7d b03c 9a58 3a3a f886 b1bc 9b49 e83c
000000f0: 75b9 a13b f219 c83a 0750 97bc c7ac 493c
-0.015989223 0.009661736 0.020878322 0.010673449 -0.024579687 0.014864947 -0.016212894 -0.009682713
-0.015141753 -0.00029431045 -0.030259157 -0.0016399602 0.003526826 0.013439523 0.011053143 -0.018000893
-0.009890579 -0.008902933 0.024699623 -0.012197954 0.022916928 -0.011939923 -0.008232676 0.008411564
-0.027824087 0.0051992093 0.009795132 0.009539853 -0.033109076 -0.010378584 0.009871442 -0.022940915
-0.0009393311 -0.022415027 0.027412092 -0.02890144 0.017309336 0.012126227 0.006454396 0.004031027
0.02859958 0.030549245 0.024470441 0.010988409 -0.013947401 -0.0059758024 -0.0015024337 -0.020517604
0.0069781076 -0.013382334 0.0077650216 0.00022430682 -0.025644155 -0.0027323347 -0.0023892445 0.02424051
0.02154412 0.00071085396 -0.021670803 0.02835541 0.0049354383 0.0015266521 -0.018470777 0.01230926

drug_proj.1.running_mean f4 [64]
00000000: 0f99 3dbe 78d6 1fbd 2e03 65bd 75ef 003e
00000010: b227 3cbe 70e2 a8bd d8c5 453d f8e4 993c
00000020: 0924 b7bc 1ae4 08be b862 35be 62df dc3c
00000030: cbe1 923e 4e93 4a3c 34ef 883b 21dc 663d
00000040: b747 7bbe 6b2c 663e 1064 4a3d b688 a0bc
00000050: be9c b7bb 523c fd3c 5d14 7fbe fe49 3dbe
00000060: d566 66bc 3fa8 d63c 2715 803e b2db 22bc
00000070: c67b b93d 7656 003e cb91 913c 831f 433c
00000080: be51 38be 1020 c73d fdeb 9a3d 82f4 013d
00000090: f0f2 54be f539 52be 4a89 0f3e 16b8 673e
000000a0: 5ac3 6fbe 40b0 503e 3bb5 abbd f004 fe3d
000000b0: a1e0 00bd b7e2 3bbb b62f 413e 6ae0 123e
000000c0: d1fe a6bd 68ca 14be 4367 153d bae8 6c3e
000000d0: 8212 3c3e ec82 dcbd d37e 99bd bfd7 073d
000000e0: 66f1 0b3e 9941 7f3b 5f9e 4e3e fec2 7fbe
000000f0: 5647 8abd 4c03 273e 6184 213c 5ed0 873e
-0.18515418 -0.039022893 -0.055911236 0.12591346 -0.18374518 -0.082463145 0.04828438 0.018785939
-0.02235605 -0.13368264 -0.1771344 0.026961986 0.2868789 0.012364222 0.004178906 0.056362275
-0.24539076 0.22477882 0.049411833 -0.019596439 -0.005603402 0.030912552 -0.24910112 -0.18485257
-0.014062603 0.026203273 0.25016138 -0.009940075 0.09056811 0.12532982 0.017769715 0.011909368
-0.17999932 0.09722912 0.075645424 0.03172732 -0.20795798 -0.20529921 0.14017215 0.22628817
-0.23414364 0.20379734 -0.08384176 0.124032855 -0.031464223 -0.0028669068 0.18865857 0.1434342
-0.08154071 -0.14530337 0.03647543 0.23135653 0.18366435 -0.10767159 -0.07494893 0.033164736
0.13666305 0.0038949011 0.20177601 -0.24976727 -0.067518875 0.16309851 0.009858222 0.2652616

drug_proj.1.running_var f4 [64]
00000000: 3f2d 6e3c a179 6a3c 5b5d 213c c007 133c
00000010: 281a da3b 7ac2 023c e38f 3a3c 56ca e83b
00000020: b1ed c73b 0ec8 ca3b fafd 243c a8f8 503c
00000030: 961a b83b a78e 4a3c ebb5 9b3b d609 023c
00000040: 9f29 5f3c 30c7 803b 1511 e73b dd35 5a3c
00000050: a242 863c 794e 6b3c d9dd 9b3c ac38 853c
00000060: 1633 923c bf84 ee3b 2d93 833b bd77 653c
00000070: c50a 423c 7eee 093c 0c5d a13b d9a6 eb3b
00000080: 9bf9 233c 5852 4c3c 156d 5c3c 1fa5 883c
00000090: cfae e93b 6302 1a3c 511d 2a3c 520d d53b
000000a0: 31f4 9f3b e921 7e3c 6959 e53b 874e ca3b
000000b0: 033b 413c 5fb9 cd3b e085 023c d848 573c
000000c0: 1f6b 193c 963a 423c c977 c93b 38ad 503c
000000d0: 9c26 f83b 8601 db3b 48a2 4e3c 069e 163c
000000e0: a9f3 243c 79ed 003c f1cb 543c d20f 4d3c
000000f0: 077c 223c 9d9d 2e3c 9ebe 6c3c 7a21 473c
0.014537155 0.014311225 0.009848918 0.008974016 0.00665595 0.007980937 0.011386844 0.0071041984
0.006101333 0.006188399 0.010070318 0.012754597 0.0056184037 0.0123631125 0.004751911 0.007936915
0.013620763 0.003929995 0.007051597 0.013318506 0.016389195 0.014361971 0.019026684 0.016262375
0.017846625 0.007279008 0.0040153475 0.014005599 0.011843388 0.008418677 0.004924422 0.0071915206
0.010008241 0.012470804 0.013453742 0.016680298 0.0071314345 0.009399983 0.010382966 0.006501832
0.004881405 0.0155110145 0.006999184 0.006173912 0.011793855 0.0062782015 0.007966489 0.013139926
0.009363919 0.011854788 0.0061483127 0.012736611 0.007572962 0.006683531 0.012611933 0.009192949
0.010067859 0.007869118 0.012988077 0.012515979 0.009917266 0.010657695 0.014449744 0.0121539775

text_proj.0.weight f4 [64, 32]
00000000: 7d50 993d 92c5 49bc d471 b73d 2513 d4bd
00000010: fe47 99bd f3f0 8cbd 47f5 173d 1706 4fbe
00000020: 3725 c63d 0a17 14bd ff43 113e b85d e83d
00000030: 0226 a3bd d68a 253e 5f89 d3bd f77b 053d
00000040: 2301 09bd 4bd2 78bd 090e 29bd 795f dbbd
00000050: ce46 51bc 68ba 03be 74b2 aa3d f044 80bd
00000060: 6500 96bd 4c7c 90bd 817f 833d 3156 50bd
00000070: f03b ebbd 55fc adbd 9dd6 bdbd 981c 85bc
00000080: ec98 c03d 2550 21be fdab d43d 1757 1dbd
00000090: 8214 25be 75b3 fabd 2cdc 1b3d 9719 503d
000000a0: 4be2 fc3d 869c 3dbd b289 283d bfdb ff3d
000000b0: 8900 d1bd 5759 07be e876 d43d ab82 093e
000000c0: b46e 343d 10a5 bc3d 7849 d6bd 7cdb 2cbc
000000d0: e2d4 f5bd daa4 9bbd 4e44 19be 1bc5 0c3e
000000e0: 762c 21be 3680 0e3d 5161 19be 035a 1d3e
000000f0: bebc d23b 35b0 9abd 25b8 683d 8264 2b3e
00000100: c408 0abe 4f61 103e 53ef fa3d e5f3 2bbe
00000110: ad24 ec3c a4f0 3fbd fa23 313e e4a3 993d
00000120: d686 1cbe c948 a13d 3be1 423d f6c2 743d
00000130: ca37 373c 9b16 513d 2d62 403c 5ecb e43d
00000140: ff23 cbbd f24c ffbd 5606 f7bd 6b54 da3d
00000150: 9fb6 15be 2a8d 193e ef79 7f39 9f84 d8bd
00000160: d6ea 823d 42f1 763c d810 2ebd 3cd1 dcbd
00000170: 9af9 97bb acd5 ab3d 391a bc3c 71ae 6cbd
00000180: 6b48 203e a444 513d b7d7 17bc fb09 fdbd
00000190: 9cc1 c4bd 9f36 1c3e f7f4 e7bd 6ba9 9f3d
000001a0: d664 bf3d af55 9a3d e9e5 503b bb2a babd
000001b0: d50f e93d 4c80 cb3d cd07 0abe 29b9 e23d
000001c0: 4efb 0abe 9ee2 733b 0508 d7bc 31ef a1bd
000001d0: 3129 4a3c 82ba 5a39 b719 8abd eca5 3b3e
000001e0: f46f 9f3d 2ce9 1c3e 8513 3ebd d35e 673d
000001f0: 007d 173e f55a dfbd fa93 2c3e 5d2b 20be
00000200: 47d6 d83d 2682 b3bd f475 bf3d 81d2 c1bd
00000210: 32b1 01bd 2613 183e 9ec0 67bd 453a fcbd
00000220: 6c9e 9f3d 26ae e3bc 421b f0bc 5b8b 18be
00000230: 4231 083e 0d5d 10be c0dd 06bd c14b 013e
00000240: a4a4 3cbd 73a6 03be e84b 3bbd cfcf b7bd
00000250: ad67 fb3c f3a5 953d 422a 593d 68dd c33d
00000260: 0fe2 08be b66e 683c a806 a6bd a91f 3c3d
00000270: 63c1 d9bd 73b3 173e ce70 c93c fef3 bbbd
00000280: cc02 233e 7e2f cdbd 31db 29be 2535 1cbe
00000290: 8ce5 c93c dade 103e 3c15 1a3e 8b4d 003e
000002a0: cdbe f03c e62a d7bd cebf adbd e742 ff3d
000002b0: f3ae 24bb 5541 303e b073 1d3d 20a1 cbbc
000002c0: 5d95 1bbe b054 30be b12d a03d e2ef 0c3e
000002d0: 56c7 acbd 4b84 ac3d 08f9 3c3e c808 12be
000002e0: 734a eabb 24d9 fdbc 3858 d33d 9df3 eebd
000002f0: 2e50 c23b 7d91 18be d3d6 d2bc c578 40be
00000300: 6f47 04bd 631e 743d feef c4bb 4dd1 0c3d
00000310: 50de 3d3e 2837 f93d 3b8f 1bbe b1a7 243e
00000320: 67dc 943d 77f8 203d b8da 063e 1063 d43d
00000330: c46c 1a3e 1f1b d6bd 20f3 083d 2a47 253e
00000340: 3e07 1dbe 75a4 9f3d 7201 2d3d 1d9b 04be
00000350: 9f4f 55bd cc40 0e3e 8fcf 0b3e 5ba4 83bc
00000360: e5c7 b2bd fe6e f8bd 9f49 fa3d 56f3 d53d
00000370: b7c9 0c3d 2750 45bd 1dcb 85bd 3683 fe3b
00000380: 3e9b eabd e84f 02be f06a 513c 6b53 0f3e
00000390: dfd8 053d 1116 afbd 20e2 983c ee83 30bd
000003a0: 392a 223d 77fe 163e 2ba1 e7bd 1441 15bd
000003b0: 6cc6 e9bd f81d 843d 6f1b 1fbe 358f 2fbe
000003c0: b385 b83d 44dc 333e 40a5 413c 8de4 f9bc
000003d0: 49f3 973c acf3 1bbe 9b34 e53d bace 0ebd
000003e0: f24b 633d 92e1 153e f18f 47bd b892 653d
000003f0: 0492 c33d 602b e93d 8abc c8bc d342 6abd
0.07486055 -0.012315171 0.08957258 -0.10355214 -0.074844345 -0.06881895 0.03709915 -0.20217167
0.09675067 -0.036154784 0.14186095 0.113460004 -0.07966234 0.16166243 -0.10328936 0.032588925
-0.03344835 -0.060747426 -0.04127315 -0.10711569 -0.012773229 -0.12864077 0.083348185 -0.06263149
-0.07324294 -0.07054958 0.06420804 -0.05086345 -0.114860415 -0.08495394 -0.0926945 -0.016248986
0.094041675 -0.15753229 0.10384367 -0.038413133 -0.16121104 -0.1224126 0.03805177 0.050805654
0.123478495 -0.04629185 0.04114694 0.12493085 -0.1020518 -0.13217674 0.10374242 0.13428752
0.044050887 0.09211171 -0.10463232 -0.010550376 -0.12003495 -0.07599802 -0.14967462 0.13747065
-0.15739617 0.03479024 -0.1497853 0.15366368 0.006431191 -0.0755314 0.05681624 0.1673756
-0.13479906 0.1409962 0.12252679 -0.16792257 0.028826082 -0.046860352 0.1729888 0.07501963
-0.15285811 0.07875211 0.047578078 0.05975624 0.011182735 0.05104695 0.011742157 0.11171602
-0.09918975 -0.12465848 -0.12061755 0.10660633 -0.14620446 0.14995256 0.00024364119 -0.105721705
0.06392448 0.015072169 -0.042496532 -0.10782096 -0.004637909 0.08390364 0.022961723 -0.057783548
0.15652625 0.05109085 -0.009267739 -0.12355419 -0.096072406 0.15255211 -0.1132602 0.07795986
0.09345405 0.07535874 0.0031875318 -0.090901814 0.11379973 0.0993658 -0.13479538 0.11070473
-0.13572428 0.0037213932 -0.026248941 -0.0790695 0.012338922 0.0002085958 -0.06743186 0.18325013
0.07785025 0.15323323 -0.046405334 0.056486916 0.14793777 -0.109060206 0.16853324 -0.15641542
0.10587745 -0.08765058 0.0934867 -0.094639786 -0.031663127 0.14851055 -0.05658018 -0.123158015
0.077938884 -0.027793001 -0.029309873 -0.1489691 0.1330004 -0.14097996 -0.03292632 0.12626554
-0.04605545 -0.12856464 -0.045726687 -0.08975183 0.030689085 0.07307043 0.053018816 0.09563714
-0.13367485 0.014186552 -0.08106738 0.04592863 -0.10632589 0.14814548 0.024589922 -0.09177397
0.15919036 -0.10018824 -0.16587521 -0.15254648 0.02464559 0.14147511 0.15047163 0.1252958
0.029387856 -0.10506229 -0.084838495 0.124639325 -0.0025128692 0.17212422 0.038440406 -0.024857104
-0.15193696 -0.17219806 0.07821215 0.13763383 -0.08436458 0.084236704 0.18454373 -0.14261162
-0.0071499883 -0.03098733 0.10319561 -0.11667559 0.0059299683 -0.1489925 -0.025737202 -0.1879607
-0.032294687 0.05959929 -0.0060100546 0.034379292 0.18541837 0.12168723 -0.15191357 0.16079594
0.07268601 0.039299455 0.13169372 0.10370457 0.15080553 -0.10454392 0.033434987 0.16140428
-0.15334794 0.077950396 0.042237706 -0.12949796 -0.052077886 0.13891906 0.13653396 -0.016069582
-0.08729533 -0.12130545 0.12221073 0.10446803 0.034372058 -0.048172142 -0.065328814 0.0077671064
-0.11455391 -0.12725794 0.012781844 0.13996665 0.032677528 -0.08549131 0.018662512 -0.043094568
0.039591048 0.14745508 -0.11310037 -0.036439016 -0.11414799 0.064510286 -0.15537809 -0.17144473
0.09009876 0.17564493 0.011819184 -0.03050449 0.018548625 -0.15229672 0.11191674 -0.03486512
0.05549235 0.1463683 -0.048721258 0.056048125 0.09549335 0.11385226 -0.024503965 -0.057192635

text_proj.0.bias f4 [64]
00000000: 78bc 533c adfb 9eb8 4a9d e0bd 571a 7d3d
00000010: d99a 593b 0ff3 adbd 7b3d c93b fd78 1fbd
00000020: 0d63 493d 22a1 a8ba cb7b d53d 183d d5bd
00000030: 4851 163d 7e7f b13d cfba e53d 0f7b 863c
00000040: 2c90 9a3c e7ab 6fb9 1d5b c938 7723 acb8
00000050: 8aeb ac3d f05f c23c f334 90bd a7d5 bc3d
00000060: 2b17 9a3c c04e bb3d 4787 87bd 37b4 f23b
00000070: 5577 d239 a6e0 b8bc e7fc c53c a19c a6bd
00000080: 2e80 57bc b2fc 8cba bb08 aab9 8f5d dbbc
00000090: 2137 abbd ca90 1a3d add1 a43d 658c 0c38
000000a0: 701e 76b8 8aa1 f03c f3e5 053d e19f 8ebd
000000b0: 4992 a63a c35d abbd 76ff 31bd 2dd5 bc3d
000000c0: 7b1b ab3d a9b6 69b8 be5b 00bd 2801 3fbd
000000d0: 3b44 84bb 72ea 5a3c d55d 0d3a 01ec 613c
000000e0: fa5f e0bd 5309 103c 44de 42bd 5ee9 9f3d
000000f0: 0094 833d 2670 94b7 9985 80ba 59e2 eabd
0.012923352 -7.5809054e-05 -0.109675005 0.061792698 0.0033203869 -0.084936254 0.0061413622 -0.038933743
0.049166728 -0.0012865404 0.10424002 -0.10412043 0.03669861 0.08666895 0.112172715 0.0164161
0.018867575 -0.00022856855 9.601398e-05 -8.208205e-05 0.08443363 0.023727387 -0.07041349 0.092204385
0.018809875 0.0914588 -0.06617599 0.007406737 0.0004014323 -0.022568058 0.024168445 -0.08135343
-0.013153119 -0.0010756461 -0.00032431431 -0.02677801 -0.083601244 0.037735738 0.08047805 3.3509354e-05
-5.8679318e-05 0.029373903 0.03269 -0.06964088 0.0012708391 -0.08367493 -0.043456517 0.092203476
0.08354851 -5.5721644e-05 -0.031337492 -0.046631962 -0.004036454 0.01336156 0.0005392705 0.013789178
-0.10955806 0.008791286 -0.04757525 0.07808183 0.06424713 -1.7695198e-05 -0.000980544 -0.11468954
